#loc = loc("/iopsstor/scratch/cscs/course_00313/gipfelsturm/.inductor_cache/xq/cxqcmr5vpyppahxuqwnndu26symr3vkdsn6uevizc2xzbtfjjnm4.py":18:0)
#loc21 = loc("in_ptr0"(#loc))
#loc22 = loc("in_ptr1"(#loc))
#loc23 = loc("out_ptr0"(#loc))
#loc24 = loc("out_ptr2"(#loc))
#loc25 = loc("xnumel"(#loc))
module {
  tt.func public @triton_poi_fused__to_copy_copy__mul_unsqueeze_view_2(%in_ptr0: !tt.ptr<f32> {tt.divisibility = 16 : i32} loc("in_ptr0"(#loc)), %in_ptr1: !tt.ptr<f32> {tt.divisibility = 16 : i32} loc("in_ptr1"(#loc)), %out_ptr0: !tt.ptr<bf16> {tt.divisibility = 16 : i32} loc("out_ptr0"(#loc)), %out_ptr2: !tt.ptr<f32> {tt.divisibility = 16 : i32} loc("out_ptr2"(#loc)), %xnumel: i32 {tt.divisibility = 16 : i32} loc("xnumel"(#loc))) attributes {noinline = false} {
    %tmp1 = arith.constant dense<4096> : tensor<512xi32> loc(#loc26)
    %x2 = arith.constant dense<402432> : tensor<512xi32> loc(#loc27)
    %x1 = arith.constant dense<8> : tensor<512xi32> loc(#loc28)
    %x1_0 = arith.constant dense<50304> : tensor<512xi32> loc(#loc29)
    %c512_i32 = arith.constant 512 : i32 loc(#loc5)
    %xoffset = tt.get_program_id x : i32 loc(#loc30)
    %xoffset_1 = arith.muli %xoffset, %c512_i32 : i32 loc(#loc31)
    %xindex = tt.make_range {end = 512 : i32, start = 0 : i32} : tensor<512xi32> loc(#loc32)
    %xindex_2 = tt.splat %xoffset_1 : i32 -> tensor<512xi32> loc(#loc33)
    %xindex_3 = arith.addi %xindex_2, %xindex : tensor<512xi32> loc(#loc33)
    %x1_4 = arith.divsi %xindex_3, %x1_0 : tensor<512xi32> loc(#loc29)
    %x1_5 = arith.remsi %x1_4, %x1 : tensor<512xi32> loc(#loc28)
    %x2_6 = arith.divsi %xindex_3, %x2 : tensor<512xi32> loc(#loc27)
    %tmp0 = tt.splat %in_ptr0 : !tt.ptr<f32> -> tensor<512x!tt.ptr<f32>> loc(#loc34)
    %tmp0_7 = tt.addptr %tmp0, %xindex_3 : tensor<512x!tt.ptr<f32>>, tensor<512xi32> loc(#loc34)
    %tmp0_8 = tt.load %tmp0_7 : tensor<512x!tt.ptr<f32>> loc(#loc35)
    %tmp1_9 = arith.muli %x1_5, %tmp1 : tensor<512xi32> loc(#loc26)
    %tmp1_10 = arith.addi %x2_6, %tmp1_9 : tensor<512xi32> loc(#loc36)
    %tmp1_11 = tt.splat %in_ptr1 : !tt.ptr<f32> -> tensor<512x!tt.ptr<f32>> loc(#loc37)
    %tmp1_12 = tt.addptr %tmp1_11, %tmp1_10 : tensor<512x!tt.ptr<f32>>, tensor<512xi32> loc(#loc37)
    %tmp1_13 = tt.load %tmp1_12 evictionPolicy = evict_last : tensor<512x!tt.ptr<f32>> loc(#loc38)
    %tmp2 = arith.mulf %tmp0_8, %tmp1_13 : tensor<512xf32> loc(#loc39)
    %0 = tt.splat %out_ptr0 : !tt.ptr<bf16> -> tensor<512x!tt.ptr<bf16>> loc(#loc16)
    %1 = tt.addptr %0, %xindex_3 : tensor<512x!tt.ptr<bf16>>, tensor<512xi32> loc(#loc16)
    %2 = arith.truncf %tmp2 : tensor<512xf32> to tensor<512xbf16> loc(#loc17)
    tt.store %1, %2 : tensor<512x!tt.ptr<bf16>> loc(#loc17)
    %3 = tt.splat %out_ptr2 : !tt.ptr<f32> -> tensor<512x!tt.ptr<f32>> loc(#loc18)
    %4 = tt.addptr %3, %xindex_3 : tensor<512x!tt.ptr<f32>>, tensor<512xi32> loc(#loc18)
    tt.store %4, %tmp2 : tensor<512x!tt.ptr<f32>> loc(#loc19)
    tt.return loc(#loc20)
  } loc(#loc)
} loc(#loc)
#loc1 = loc("/iopsstor/scratch/cscs/course_00313/gipfelsturm/.inductor_cache/xq/cxqcmr5vpyppahxuqwnndu26symr3vkdsn6uevizc2xzbtfjjnm4.py":27:40)
#loc2 = loc("/iopsstor/scratch/cscs/course_00313/gipfelsturm/.inductor_cache/xq/cxqcmr5vpyppahxuqwnndu26symr3vkdsn6uevizc2xzbtfjjnm4.py":25:19)
#loc3 = loc("/iopsstor/scratch/cscs/course_00313/gipfelsturm/.inductor_cache/xq/cxqcmr5vpyppahxuqwnndu26symr3vkdsn6uevizc2xzbtfjjnm4.py":24:30)
#loc4 = loc("/iopsstor/scratch/cscs/course_00313/gipfelsturm/.inductor_cache/xq/cxqcmr5vpyppahxuqwnndu26symr3vkdsn6uevizc2xzbtfjjnm4.py":24:21)
#loc5 = loc(unknown)
#loc6 = loc("/iopsstor/scratch/cscs/course_00313/gipfelsturm/.inductor_cache/xq/cxqcmr5vpyppahxuqwnndu26symr3vkdsn6uevizc2xzbtfjjnm4.py":20:28)
#loc7 = loc("/iopsstor/scratch/cscs/course_00313/gipfelsturm/.inductor_cache/xq/cxqcmr5vpyppahxuqwnndu26symr3vkdsn6uevizc2xzbtfjjnm4.py":20:33)
#loc8 = loc("/iopsstor/scratch/cscs/course_00313/gipfelsturm/.inductor_cache/xq/cxqcmr5vpyppahxuqwnndu26symr3vkdsn6uevizc2xzbtfjjnm4.py":21:36)
#loc9 = loc("/iopsstor/scratch/cscs/course_00313/gipfelsturm/.inductor_cache/xq/cxqcmr5vpyppahxuqwnndu26symr3vkdsn6uevizc2xzbtfjjnm4.py":21:23)
#loc10 = loc("/iopsstor/scratch/cscs/course_00313/gipfelsturm/.inductor_cache/xq/cxqcmr5vpyppahxuqwnndu26symr3vkdsn6uevizc2xzbtfjjnm4.py":26:30)
#loc11 = loc("/iopsstor/scratch/cscs/course_00313/gipfelsturm/.inductor_cache/xq/cxqcmr5vpyppahxuqwnndu26symr3vkdsn6uevizc2xzbtfjjnm4.py":26:35)
#loc12 = loc("/iopsstor/scratch/cscs/course_00313/gipfelsturm/.inductor_cache/xq/cxqcmr5vpyppahxuqwnndu26symr3vkdsn6uevizc2xzbtfjjnm4.py":27:35)
#loc13 = loc("/iopsstor/scratch/cscs/course_00313/gipfelsturm/.inductor_cache/xq/cxqcmr5vpyppahxuqwnndu26symr3vkdsn6uevizc2xzbtfjjnm4.py":27:30)
#loc14 = loc("/iopsstor/scratch/cscs/course_00313/gipfelsturm/.inductor_cache/xq/cxqcmr5vpyppahxuqwnndu26symr3vkdsn6uevizc2xzbtfjjnm4.py":27:45)
#loc15 = loc("/iopsstor/scratch/cscs/course_00313/gipfelsturm/.inductor_cache/xq/cxqcmr5vpyppahxuqwnndu26symr3vkdsn6uevizc2xzbtfjjnm4.py":28:18)
#loc16 = loc("/iopsstor/scratch/cscs/course_00313/gipfelsturm/.inductor_cache/xq/cxqcmr5vpyppahxuqwnndu26symr3vkdsn6uevizc2xzbtfjjnm4.py":30:25)
#loc17 = loc("/iopsstor/scratch/cscs/course_00313/gipfelsturm/.inductor_cache/xq/cxqcmr5vpyppahxuqwnndu26symr3vkdsn6uevizc2xzbtfjjnm4.py":30:36)
#loc18 = loc("/iopsstor/scratch/cscs/course_00313/gipfelsturm/.inductor_cache/xq/cxqcmr5vpyppahxuqwnndu26symr3vkdsn6uevizc2xzbtfjjnm4.py":31:25)
#loc19 = loc("/iopsstor/scratch/cscs/course_00313/gipfelsturm/.inductor_cache/xq/cxqcmr5vpyppahxuqwnndu26symr3vkdsn6uevizc2xzbtfjjnm4.py":31:36)
#loc20 = loc("/iopsstor/scratch/cscs/course_00313/gipfelsturm/.inductor_cache/xq/cxqcmr5vpyppahxuqwnndu26symr3vkdsn6uevizc2xzbtfjjnm4.py":31:4)
#loc26 = loc("tmp1"(#loc1))
#loc27 = loc("x2"(#loc2))
#loc28 = loc("x1"(#loc3))
#loc29 = loc("x1"(#loc4))
#loc30 = loc("xoffset"(#loc6))
#loc31 = loc("xoffset"(#loc7))
#loc32 = loc("xindex"(#loc8))
#loc33 = loc("xindex"(#loc9))
#loc34 = loc("tmp0"(#loc10))
#loc35 = loc("tmp0"(#loc11))
#loc36 = loc("tmp1"(#loc12))
#loc37 = loc("tmp1"(#loc13))
#loc38 = loc("tmp1"(#loc14))
#loc39 = loc("tmp2"(#loc15))
