#loc = loc("/iopsstor/scratch/cscs/course_00313/gipfelsturm/.inductor_cache/kf/ckfy577r2vsyzka634ck2xeyc37rpkpbigjhos4bdned6qxdgx4s.py":18:0)
#loc19 = loc("in_ptr0"(#loc))
#loc20 = loc("in_ptr1"(#loc))
#loc21 = loc("out_ptr1"(#loc))
#loc22 = loc("xnumel"(#loc))
module {
  tt.func public @triton_poi_fused_copy__div_split_unsqueeze_1(%in_ptr0: !tt.ptr<f32> {tt.divisibility = 16 : i32} loc("in_ptr0"(#loc)), %in_ptr1: !tt.ptr<f32> {tt.divisibility = 16 : i32} loc("in_ptr1"(#loc)), %out_ptr1: !tt.ptr<f32> {tt.divisibility = 16 : i32} loc("out_ptr1"(#loc)), %xnumel: i64 {tt.divisibility = 16 : i32} loc("xnumel"(#loc))) attributes {noinline = false} {
    %xnumel_0 = arith.constant -998244352 : i32 loc(#loc23)
    %xoffset = tt.get_program_id x : i32 loc(#loc24)
    %xoffset_1 = arith.extsi %xoffset : i32 to i64 loc(#loc25)
    %xoffset_2 = arith.constant 1024 : i32 loc(#loc26)
    %xoffset_3 = arith.constant 1024 : i64 loc(#loc26)
    %xoffset_4 = arith.muli %xoffset_1, %xoffset_3 : i64 loc(#loc26)
    %xindex = tt.make_range {end = 1024 : i32, start = 0 : i32} : tensor<1024xi32> loc(#loc27)
    %xindex_5 = arith.extsi %xindex : tensor<1024xi32> to tensor<1024xi64> loc(#loc28)
    %xindex_6 = tt.splat %xoffset_4 : i64 -> tensor<1024xi64> loc(#loc29)
    %xindex_7 = arith.addi %xindex_6, %xindex_5 : tensor<1024xi64> loc(#loc29)
    %xmask = arith.constant true loc(#loc30)
    %xmask_8 = arith.constant dense<true> : tensor<1024xi1> loc(#loc30)
    %x1 = arith.constant 50304 : i32 loc(#loc31)
    %x1_9 = arith.constant 50304 : i64 loc(#loc31)
    %x1_10 = arith.constant dense<50304> : tensor<1024xi64> loc(#loc31)
    %x1_11 = arith.divsi %xindex_7, %x1_10 : tensor<1024xi64> loc(#loc31)
    %tmp0 = tt.splat %in_ptr0 : !tt.ptr<f32> -> tensor<1024x!tt.ptr<f32>> loc(#loc32)
    %tmp0_12 = tt.addptr %tmp0, %xindex_7 : tensor<1024x!tt.ptr<f32>>, tensor<1024xi64> loc(#loc32)
    %tmp0_13 = tt.load %tmp0_12 : tensor<1024x!tt.ptr<f32>> loc(#loc33)
    %tmp1 = arith.constant 65536 : i32 loc(#loc34)
    %tmp1_14 = arith.constant 65536 : i64 loc(#loc34)
    %tmp1_15 = arith.constant dense<65536> : tensor<1024xi64> loc(#loc34)
    %tmp1_16 = arith.addi %tmp1_15, %x1_11 : tensor<1024xi64> loc(#loc34)
    %tmp1_17 = tt.splat %in_ptr1 : !tt.ptr<f32> -> tensor<1024x!tt.ptr<f32>> loc(#loc35)
    %tmp1_18 = tt.addptr %tmp1_17, %tmp1_16 : tensor<1024x!tt.ptr<f32>>, tensor<1024xi64> loc(#loc35)
    %tmp1_19 = tt.load %tmp1_18 evictionPolicy = evict_last : tensor<1024x!tt.ptr<f32>> loc(#loc36)
    %tmp2 = arith.divf %tmp0_13, %tmp1_19 : tensor<1024xf32> loc(#loc37)
    %0 = tt.splat %out_ptr1 : !tt.ptr<f32> -> tensor<1024x!tt.ptr<f32>> loc(#loc16)
    %1 = tt.addptr %0, %xindex_7 : tensor<1024x!tt.ptr<f32>>, tensor<1024xi64> loc(#loc16)
    tt.store %1, %tmp2 : tensor<1024x!tt.ptr<f32>> loc(#loc17)
    tt.return loc(#loc18)
  } loc(#loc)
} loc(#loc)
#loc1 = loc("/iopsstor/scratch/cscs/course_00313/gipfelsturm/.inductor_cache/kf/ckfy577r2vsyzka634ck2xeyc37rpkpbigjhos4bdned6qxdgx4s.py":19:13)
#loc2 = loc("/iopsstor/scratch/cscs/course_00313/gipfelsturm/.inductor_cache/kf/ckfy577r2vsyzka634ck2xeyc37rpkpbigjhos4bdned6qxdgx4s.py":20:28)
#loc3 = loc("/iopsstor/scratch/cscs/course_00313/gipfelsturm/.inductor_cache/kf/ckfy577r2vsyzka634ck2xeyc37rpkpbigjhos4bdned6qxdgx4s.py":20:34)
#loc4 = loc("/iopsstor/scratch/cscs/course_00313/gipfelsturm/.inductor_cache/kf/ckfy577r2vsyzka634ck2xeyc37rpkpbigjhos4bdned6qxdgx4s.py":20:46)
#loc5 = loc("/iopsstor/scratch/cscs/course_00313/gipfelsturm/.inductor_cache/kf/ckfy577r2vsyzka634ck2xeyc37rpkpbigjhos4bdned6qxdgx4s.py":21:36)
#loc6 = loc("/iopsstor/scratch/cscs/course_00313/gipfelsturm/.inductor_cache/kf/ckfy577r2vsyzka634ck2xeyc37rpkpbigjhos4bdned6qxdgx4s.py":21:50)
#loc7 = loc("/iopsstor/scratch/cscs/course_00313/gipfelsturm/.inductor_cache/kf/ckfy577r2vsyzka634ck2xeyc37rpkpbigjhos4bdned6qxdgx4s.py":21:23)
#loc8 = loc("/iopsstor/scratch/cscs/course_00313/gipfelsturm/.inductor_cache/kf/ckfy577r2vsyzka634ck2xeyc37rpkpbigjhos4bdned6qxdgx4s.py":22:36)
#loc9 = loc("/iopsstor/scratch/cscs/course_00313/gipfelsturm/.inductor_cache/kf/ckfy577r2vsyzka634ck2xeyc37rpkpbigjhos4bdned6qxdgx4s.py":24:19)
#loc10 = loc("/iopsstor/scratch/cscs/course_00313/gipfelsturm/.inductor_cache/kf/ckfy577r2vsyzka634ck2xeyc37rpkpbigjhos4bdned6qxdgx4s.py":25:30)
#loc11 = loc("/iopsstor/scratch/cscs/course_00313/gipfelsturm/.inductor_cache/kf/ckfy577r2vsyzka634ck2xeyc37rpkpbigjhos4bdned6qxdgx4s.py":25:35)
#loc12 = loc("/iopsstor/scratch/cscs/course_00313/gipfelsturm/.inductor_cache/kf/ckfy577r2vsyzka634ck2xeyc37rpkpbigjhos4bdned6qxdgx4s.py":26:38)
#loc13 = loc("/iopsstor/scratch/cscs/course_00313/gipfelsturm/.inductor_cache/kf/ckfy577r2vsyzka634ck2xeyc37rpkpbigjhos4bdned6qxdgx4s.py":26:30)
#loc14 = loc("/iopsstor/scratch/cscs/course_00313/gipfelsturm/.inductor_cache/kf/ckfy577r2vsyzka634ck2xeyc37rpkpbigjhos4bdned6qxdgx4s.py":26:43)
#loc15 = loc("/iopsstor/scratch/cscs/course_00313/gipfelsturm/.inductor_cache/kf/ckfy577r2vsyzka634ck2xeyc37rpkpbigjhos4bdned6qxdgx4s.py":27:19)
#loc16 = loc("/iopsstor/scratch/cscs/course_00313/gipfelsturm/.inductor_cache/kf/ckfy577r2vsyzka634ck2xeyc37rpkpbigjhos4bdned6qxdgx4s.py":28:25)
#loc17 = loc("/iopsstor/scratch/cscs/course_00313/gipfelsturm/.inductor_cache/kf/ckfy577r2vsyzka634ck2xeyc37rpkpbigjhos4bdned6qxdgx4s.py":28:36)
#loc18 = loc("/iopsstor/scratch/cscs/course_00313/gipfelsturm/.inductor_cache/kf/ckfy577r2vsyzka634ck2xeyc37rpkpbigjhos4bdned6qxdgx4s.py":28:4)
#loc23 = loc("xnumel"(#loc1))
#loc24 = loc("xoffset"(#loc2))
#loc25 = loc("xoffset"(#loc3))
#loc26 = loc("xoffset"(#loc4))
#loc27 = loc("xindex"(#loc5))
#loc28 = loc("xindex"(#loc6))
#loc29 = loc("xindex"(#loc7))
#loc30 = loc("xmask"(#loc8))
#loc31 = loc("x1"(#loc9))
#loc32 = loc("tmp0"(#loc10))
#loc33 = loc("tmp0"(#loc11))
#loc34 = loc("tmp1"(#loc12))
#loc35 = loc("tmp1"(#loc13))
#loc36 = loc("tmp1"(#loc14))
#loc37 = loc("tmp2"(#loc15))
