#loc = loc("/iopsstor/scratch/cscs/course_00313/gipfelsturm/.inductor_cache/vh/cvhjg7uaoiveis4qkymkmezrdjntlx3zkjvt3hd6lzpot4hcpqbq.py":18:0)
#loc24 = loc("in_ptr0"(#loc))
#loc25 = loc("in_ptr1"(#loc))
#loc26 = loc("out_ptr0"(#loc))
#loc27 = loc("out_ptr2"(#loc))
#loc28 = loc("xnumel"(#loc))
module {
  tt.func public @triton_poi_fused__to_copy_copy__mul_unsqueeze_view_2(%in_ptr0: !tt.ptr<f32> {tt.divisibility = 16 : i32} loc("in_ptr0"(#loc)), %in_ptr1: !tt.ptr<f32> {tt.divisibility = 16 : i32} loc("in_ptr1"(#loc)), %out_ptr0: !tt.ptr<bf16> {tt.divisibility = 16 : i32} loc("out_ptr0"(#loc)), %out_ptr2: !tt.ptr<f32> {tt.divisibility = 16 : i32} loc("out_ptr2"(#loc)), %xnumel: i64 {tt.divisibility = 16 : i32} loc("xnumel"(#loc))) attributes {noinline = false} {
    %xnumel_0 = arith.constant -998244352 : i32 loc(#loc29)
    %xoffset = tt.get_program_id x : i32 loc(#loc30)
    %xoffset_1 = arith.extsi %xoffset : i32 to i64 loc(#loc31)
    %xoffset_2 = arith.constant 1024 : i32 loc(#loc32)
    %xoffset_3 = arith.constant 1024 : i64 loc(#loc32)
    %xoffset_4 = arith.muli %xoffset_1, %xoffset_3 : i64 loc(#loc32)
    %xindex = tt.make_range {end = 1024 : i32, start = 0 : i32} : tensor<1024xi32> loc(#loc33)
    %xindex_5 = arith.extsi %xindex : tensor<1024xi32> to tensor<1024xi64> loc(#loc34)
    %xindex_6 = tt.splat %xoffset_4 : i64 -> tensor<1024xi64> loc(#loc35)
    %xindex_7 = arith.addi %xindex_6, %xindex_5 : tensor<1024xi64> loc(#loc35)
    %xmask = arith.constant true loc(#loc36)
    %xmask_8 = arith.constant dense<true> : tensor<1024xi1> loc(#loc36)
    %x1 = arith.constant 50304 : i32 loc(#loc37)
    %x1_9 = arith.constant 50304 : i64 loc(#loc37)
    %x1_10 = arith.constant dense<50304> : tensor<1024xi64> loc(#loc37)
    %x1_11 = arith.divsi %xindex_7, %x1_10 : tensor<1024xi64> loc(#loc37)
    %x1_12 = arith.constant 16 : i32 loc(#loc38)
    %x1_13 = arith.constant 16 : i64 loc(#loc38)
    %x1_14 = arith.constant dense<16> : tensor<1024xi64> loc(#loc38)
    %x1_15 = arith.remsi %x1_11, %x1_14 : tensor<1024xi64> loc(#loc38)
    %x2 = arith.constant 804864 : i32 loc(#loc39)
    %x2_16 = arith.constant 804864 : i64 loc(#loc39)
    %x2_17 = arith.constant dense<804864> : tensor<1024xi64> loc(#loc39)
    %x2_18 = arith.divsi %xindex_7, %x2_17 : tensor<1024xi64> loc(#loc39)
    %tmp0 = tt.splat %in_ptr0 : !tt.ptr<f32> -> tensor<1024x!tt.ptr<f32>> loc(#loc40)
    %tmp0_19 = tt.addptr %tmp0, %xindex_7 : tensor<1024x!tt.ptr<f32>>, tensor<1024xi64> loc(#loc40)
    %tmp0_20 = tt.load %tmp0_19 : tensor<1024x!tt.ptr<f32>> loc(#loc41)
    %tmp1 = arith.constant 4096 : i32 loc(#loc42)
    %tmp1_21 = arith.constant 4096 : i64 loc(#loc42)
    %tmp1_22 = arith.constant dense<4096> : tensor<1024xi64> loc(#loc42)
    %tmp1_23 = arith.muli %tmp1_22, %x1_15 : tensor<1024xi64> loc(#loc42)
    %tmp1_24 = arith.addi %x2_18, %tmp1_23 : tensor<1024xi64> loc(#loc43)
    %tmp1_25 = tt.splat %in_ptr1 : !tt.ptr<f32> -> tensor<1024x!tt.ptr<f32>> loc(#loc44)
    %tmp1_26 = tt.addptr %tmp1_25, %tmp1_24 : tensor<1024x!tt.ptr<f32>>, tensor<1024xi64> loc(#loc44)
    %tmp1_27 = tt.load %tmp1_26 evictionPolicy = evict_last : tensor<1024x!tt.ptr<f32>> loc(#loc45)
    %tmp2 = arith.mulf %tmp0_20, %tmp1_27 : tensor<1024xf32> loc(#loc46)
    %0 = tt.splat %out_ptr0 : !tt.ptr<bf16> -> tensor<1024x!tt.ptr<bf16>> loc(#loc19)
    %1 = tt.addptr %0, %xindex_7 : tensor<1024x!tt.ptr<bf16>>, tensor<1024xi64> loc(#loc19)
    %2 = arith.truncf %tmp2 : tensor<1024xf32> to tensor<1024xbf16> loc(#loc20)
    tt.store %1, %2 : tensor<1024x!tt.ptr<bf16>> loc(#loc20)
    %3 = tt.splat %out_ptr2 : !tt.ptr<f32> -> tensor<1024x!tt.ptr<f32>> loc(#loc21)
    %4 = tt.addptr %3, %xindex_7 : tensor<1024x!tt.ptr<f32>>, tensor<1024xi64> loc(#loc21)
    tt.store %4, %tmp2 : tensor<1024x!tt.ptr<f32>> loc(#loc22)
    tt.return loc(#loc23)
  } loc(#loc)
} loc(#loc)
#loc1 = loc("/iopsstor/scratch/cscs/course_00313/gipfelsturm/.inductor_cache/vh/cvhjg7uaoiveis4qkymkmezrdjntlx3zkjvt3hd6lzpot4hcpqbq.py":19:13)
#loc2 = loc("/iopsstor/scratch/cscs/course_00313/gipfelsturm/.inductor_cache/vh/cvhjg7uaoiveis4qkymkmezrdjntlx3zkjvt3hd6lzpot4hcpqbq.py":20:28)
#loc3 = loc("/iopsstor/scratch/cscs/course_00313/gipfelsturm/.inductor_cache/vh/cvhjg7uaoiveis4qkymkmezrdjntlx3zkjvt3hd6lzpot4hcpqbq.py":20:34)
#loc4 = loc("/iopsstor/scratch/cscs/course_00313/gipfelsturm/.inductor_cache/vh/cvhjg7uaoiveis4qkymkmezrdjntlx3zkjvt3hd6lzpot4hcpqbq.py":20:46)
#loc5 = loc("/iopsstor/scratch/cscs/course_00313/gipfelsturm/.inductor_cache/vh/cvhjg7uaoiveis4qkymkmezrdjntlx3zkjvt3hd6lzpot4hcpqbq.py":21:36)
#loc6 = loc("/iopsstor/scratch/cscs/course_00313/gipfelsturm/.inductor_cache/vh/cvhjg7uaoiveis4qkymkmezrdjntlx3zkjvt3hd6lzpot4hcpqbq.py":21:50)
#loc7 = loc("/iopsstor/scratch/cscs/course_00313/gipfelsturm/.inductor_cache/vh/cvhjg7uaoiveis4qkymkmezrdjntlx3zkjvt3hd6lzpot4hcpqbq.py":21:23)
#loc8 = loc("/iopsstor/scratch/cscs/course_00313/gipfelsturm/.inductor_cache/vh/cvhjg7uaoiveis4qkymkmezrdjntlx3zkjvt3hd6lzpot4hcpqbq.py":22:36)
#loc9 = loc("/iopsstor/scratch/cscs/course_00313/gipfelsturm/.inductor_cache/vh/cvhjg7uaoiveis4qkymkmezrdjntlx3zkjvt3hd6lzpot4hcpqbq.py":24:21)
#loc10 = loc("/iopsstor/scratch/cscs/course_00313/gipfelsturm/.inductor_cache/vh/cvhjg7uaoiveis4qkymkmezrdjntlx3zkjvt3hd6lzpot4hcpqbq.py":24:30)
#loc11 = loc("/iopsstor/scratch/cscs/course_00313/gipfelsturm/.inductor_cache/vh/cvhjg7uaoiveis4qkymkmezrdjntlx3zkjvt3hd6lzpot4hcpqbq.py":25:19)
#loc12 = loc("/iopsstor/scratch/cscs/course_00313/gipfelsturm/.inductor_cache/vh/cvhjg7uaoiveis4qkymkmezrdjntlx3zkjvt3hd6lzpot4hcpqbq.py":26:30)
#loc13 = loc("/iopsstor/scratch/cscs/course_00313/gipfelsturm/.inductor_cache/vh/cvhjg7uaoiveis4qkymkmezrdjntlx3zkjvt3hd6lzpot4hcpqbq.py":26:35)
#loc14 = loc("/iopsstor/scratch/cscs/course_00313/gipfelsturm/.inductor_cache/vh/cvhjg7uaoiveis4qkymkmezrdjntlx3zkjvt3hd6lzpot4hcpqbq.py":27:40)
#loc15 = loc("/iopsstor/scratch/cscs/course_00313/gipfelsturm/.inductor_cache/vh/cvhjg7uaoiveis4qkymkmezrdjntlx3zkjvt3hd6lzpot4hcpqbq.py":27:35)
#loc16 = loc("/iopsstor/scratch/cscs/course_00313/gipfelsturm/.inductor_cache/vh/cvhjg7uaoiveis4qkymkmezrdjntlx3zkjvt3hd6lzpot4hcpqbq.py":27:30)
#loc17 = loc("/iopsstor/scratch/cscs/course_00313/gipfelsturm/.inductor_cache/vh/cvhjg7uaoiveis4qkymkmezrdjntlx3zkjvt3hd6lzpot4hcpqbq.py":27:45)
#loc18 = loc("/iopsstor/scratch/cscs/course_00313/gipfelsturm/.inductor_cache/vh/cvhjg7uaoiveis4qkymkmezrdjntlx3zkjvt3hd6lzpot4hcpqbq.py":28:18)
#loc19 = loc("/iopsstor/scratch/cscs/course_00313/gipfelsturm/.inductor_cache/vh/cvhjg7uaoiveis4qkymkmezrdjntlx3zkjvt3hd6lzpot4hcpqbq.py":30:25)
#loc20 = loc("/iopsstor/scratch/cscs/course_00313/gipfelsturm/.inductor_cache/vh/cvhjg7uaoiveis4qkymkmezrdjntlx3zkjvt3hd6lzpot4hcpqbq.py":30:36)
#loc21 = loc("/iopsstor/scratch/cscs/course_00313/gipfelsturm/.inductor_cache/vh/cvhjg7uaoiveis4qkymkmezrdjntlx3zkjvt3hd6lzpot4hcpqbq.py":31:25)
#loc22 = loc("/iopsstor/scratch/cscs/course_00313/gipfelsturm/.inductor_cache/vh/cvhjg7uaoiveis4qkymkmezrdjntlx3zkjvt3hd6lzpot4hcpqbq.py":31:36)
#loc23 = loc("/iopsstor/scratch/cscs/course_00313/gipfelsturm/.inductor_cache/vh/cvhjg7uaoiveis4qkymkmezrdjntlx3zkjvt3hd6lzpot4hcpqbq.py":31:4)
#loc29 = loc("xnumel"(#loc1))
#loc30 = loc("xoffset"(#loc2))
#loc31 = loc("xoffset"(#loc3))
#loc32 = loc("xoffset"(#loc4))
#loc33 = loc("xindex"(#loc5))
#loc34 = loc("xindex"(#loc6))
#loc35 = loc("xindex"(#loc7))
#loc36 = loc("xmask"(#loc8))
#loc37 = loc("x1"(#loc9))
#loc38 = loc("x1"(#loc10))
#loc39 = loc("x2"(#loc11))
#loc40 = loc("tmp0"(#loc12))
#loc41 = loc("tmp0"(#loc13))
#loc42 = loc("tmp1"(#loc14))
#loc43 = loc("tmp1"(#loc15))
#loc44 = loc("tmp1"(#loc16))
#loc45 = loc("tmp1"(#loc17))
#loc46 = loc("tmp2"(#loc18))
