#loc = loc("/iopsstor/scratch/cscs/course_00313/gipfelsturm/.inductor_cache/kf/ckfy577r2vsyzka634ck2xeyc37rpkpbigjhos4bdned6qxdgx4s.py":18:0)
#loc17 = loc("in_ptr0"(#loc))
#loc18 = loc("in_ptr1"(#loc))
#loc19 = loc("out_ptr1"(#loc))
#loc20 = loc("xnumel"(#loc))
module {
  tt.func public @triton_poi_fused_copy__div_split_unsqueeze_1(%in_ptr0: !tt.ptr<f32> {tt.divisibility = 16 : i32} loc("in_ptr0"(#loc)), %in_ptr1: !tt.ptr<f32> {tt.divisibility = 16 : i32} loc("in_ptr1"(#loc)), %out_ptr1: !tt.ptr<f32> {tt.divisibility = 16 : i32} loc("out_ptr1"(#loc)), %xnumel: i64 {tt.divisibility = 16 : i32} loc("xnumel"(#loc))) attributes {noinline = false} {
    %tmp1 = arith.constant dense<65536> : tensor<1024xi64> loc(#loc21)
    %x1 = arith.constant dense<50304> : tensor<1024xi64> loc(#loc22)
    %xoffset = arith.constant 1024 : i64 loc(#loc23)
    %xoffset_0 = tt.get_program_id x : i32 loc(#loc24)
    %xoffset_1 = arith.extsi %xoffset_0 : i32 to i64 loc(#loc25)
    %xoffset_2 = arith.muli %xoffset_1, %xoffset : i64 loc(#loc23)
    %xindex = tt.make_range {end = 1024 : i32, start = 0 : i32} : tensor<1024xi32> loc(#loc26)
    %xindex_3 = arith.extsi %xindex : tensor<1024xi32> to tensor<1024xi64> loc(#loc27)
    %xindex_4 = tt.splat %xoffset_2 : i64 -> tensor<1024xi64> loc(#loc28)
    %xindex_5 = arith.addi %xindex_4, %xindex_3 : tensor<1024xi64> loc(#loc28)
    %x1_6 = arith.divsi %xindex_5, %x1 : tensor<1024xi64> loc(#loc22)
    %tmp0 = tt.splat %in_ptr0 : !tt.ptr<f32> -> tensor<1024x!tt.ptr<f32>> loc(#loc29)
    %tmp0_7 = tt.addptr %tmp0, %xindex_5 : tensor<1024x!tt.ptr<f32>>, tensor<1024xi64> loc(#loc29)
    %tmp0_8 = tt.load %tmp0_7 : tensor<1024x!tt.ptr<f32>> loc(#loc30)
    %tmp1_9 = arith.addi %x1_6, %tmp1 : tensor<1024xi64> loc(#loc21)
    %tmp1_10 = tt.splat %in_ptr1 : !tt.ptr<f32> -> tensor<1024x!tt.ptr<f32>> loc(#loc31)
    %tmp1_11 = tt.addptr %tmp1_10, %tmp1_9 : tensor<1024x!tt.ptr<f32>>, tensor<1024xi64> loc(#loc31)
    %tmp1_12 = tt.load %tmp1_11 evictionPolicy = evict_last : tensor<1024x!tt.ptr<f32>> loc(#loc32)
    %tmp2 = arith.divf %tmp0_8, %tmp1_12 : tensor<1024xf32> loc(#loc33)
    %0 = tt.splat %out_ptr1 : !tt.ptr<f32> -> tensor<1024x!tt.ptr<f32>> loc(#loc14)
    %1 = tt.addptr %0, %xindex_5 : tensor<1024x!tt.ptr<f32>>, tensor<1024xi64> loc(#loc14)
    tt.store %1, %tmp2 : tensor<1024x!tt.ptr<f32>> loc(#loc15)
    tt.return loc(#loc16)
  } loc(#loc)
} loc(#loc)
#loc1 = loc("/iopsstor/scratch/cscs/course_00313/gipfelsturm/.inductor_cache/kf/ckfy577r2vsyzka634ck2xeyc37rpkpbigjhos4bdned6qxdgx4s.py":26:38)
#loc2 = loc("/iopsstor/scratch/cscs/course_00313/gipfelsturm/.inductor_cache/kf/ckfy577r2vsyzka634ck2xeyc37rpkpbigjhos4bdned6qxdgx4s.py":24:19)
#loc3 = loc("/iopsstor/scratch/cscs/course_00313/gipfelsturm/.inductor_cache/kf/ckfy577r2vsyzka634ck2xeyc37rpkpbigjhos4bdned6qxdgx4s.py":20:46)
#loc4 = loc("/iopsstor/scratch/cscs/course_00313/gipfelsturm/.inductor_cache/kf/ckfy577r2vsyzka634ck2xeyc37rpkpbigjhos4bdned6qxdgx4s.py":20:28)
#loc5 = loc("/iopsstor/scratch/cscs/course_00313/gipfelsturm/.inductor_cache/kf/ckfy577r2vsyzka634ck2xeyc37rpkpbigjhos4bdned6qxdgx4s.py":20:34)
#loc6 = loc("/iopsstor/scratch/cscs/course_00313/gipfelsturm/.inductor_cache/kf/ckfy577r2vsyzka634ck2xeyc37rpkpbigjhos4bdned6qxdgx4s.py":21:36)
#loc7 = loc("/iopsstor/scratch/cscs/course_00313/gipfelsturm/.inductor_cache/kf/ckfy577r2vsyzka634ck2xeyc37rpkpbigjhos4bdned6qxdgx4s.py":21:50)
#loc8 = loc("/iopsstor/scratch/cscs/course_00313/gipfelsturm/.inductor_cache/kf/ckfy577r2vsyzka634ck2xeyc37rpkpbigjhos4bdned6qxdgx4s.py":21:23)
#loc9 = loc("/iopsstor/scratch/cscs/course_00313/gipfelsturm/.inductor_cache/kf/ckfy577r2vsyzka634ck2xeyc37rpkpbigjhos4bdned6qxdgx4s.py":25:30)
#loc10 = loc("/iopsstor/scratch/cscs/course_00313/gipfelsturm/.inductor_cache/kf/ckfy577r2vsyzka634ck2xeyc37rpkpbigjhos4bdned6qxdgx4s.py":25:35)
#loc11 = loc("/iopsstor/scratch/cscs/course_00313/gipfelsturm/.inductor_cache/kf/ckfy577r2vsyzka634ck2xeyc37rpkpbigjhos4bdned6qxdgx4s.py":26:30)
#loc12 = loc("/iopsstor/scratch/cscs/course_00313/gipfelsturm/.inductor_cache/kf/ckfy577r2vsyzka634ck2xeyc37rpkpbigjhos4bdned6qxdgx4s.py":26:43)
#loc13 = loc("/iopsstor/scratch/cscs/course_00313/gipfelsturm/.inductor_cache/kf/ckfy577r2vsyzka634ck2xeyc37rpkpbigjhos4bdned6qxdgx4s.py":27:19)
#loc14 = loc("/iopsstor/scratch/cscs/course_00313/gipfelsturm/.inductor_cache/kf/ckfy577r2vsyzka634ck2xeyc37rpkpbigjhos4bdned6qxdgx4s.py":28:25)
#loc15 = loc("/iopsstor/scratch/cscs/course_00313/gipfelsturm/.inductor_cache/kf/ckfy577r2vsyzka634ck2xeyc37rpkpbigjhos4bdned6qxdgx4s.py":28:36)
#loc16 = loc("/iopsstor/scratch/cscs/course_00313/gipfelsturm/.inductor_cache/kf/ckfy577r2vsyzka634ck2xeyc37rpkpbigjhos4bdned6qxdgx4s.py":28:4)
#loc21 = loc("tmp1"(#loc1))
#loc22 = loc("x1"(#loc2))
#loc23 = loc("xoffset"(#loc3))
#loc24 = loc("xoffset"(#loc4))
#loc25 = loc("xoffset"(#loc5))
#loc26 = loc("xindex"(#loc6))
#loc27 = loc("xindex"(#loc7))
#loc28 = loc("xindex"(#loc8))
#loc29 = loc("tmp0"(#loc9))
#loc30 = loc("tmp0"(#loc10))
#loc31 = loc("tmp1"(#loc11))
#loc32 = loc("tmp1"(#loc12))
#loc33 = loc("tmp2"(#loc13))
