#loc = loc("/iopsstor/scratch/cscs/course_00313/gipfelsturm/.inductor_cache/6x/c6x6bmx44vjdjlfvngje7ilh5omf4r7o27pssg6fuswqh44ub2jk.py":18:0)
#loc27 = loc("in_ptr0"(#loc))
#loc28 = loc("in_ptr1"(#loc))
#loc29 = loc("in_ptr2"(#loc))
#loc30 = loc("out_ptr0"(#loc))
#loc31 = loc("xnumel"(#loc))
module {
  tt.func public @triton_poi_fused__to_copy_arange_index_index_put_rsub_sub_view_1(%in_ptr0: !tt.ptr<i64> {tt.divisibility = 16 : i32} loc("in_ptr0"(#loc)), %in_ptr1: !tt.ptr<f32> {tt.divisibility = 16 : i32} loc("in_ptr1"(#loc)), %in_ptr2: !tt.ptr<i1> {tt.divisibility = 16 : i32} loc("in_ptr2"(#loc)), %out_ptr0: !tt.ptr<f32> {tt.divisibility = 16 : i32} loc("out_ptr0"(#loc)), %xnumel: i32 {tt.divisibility = 16 : i32} loc("xnumel"(#loc))) attributes {noinline = false} {
    %cst = arith.constant dense<0> : tensor<256xi64> loc(#loc1)
    %cst_0 = arith.constant dense<50304> : tensor<256xi64> loc(#loc1)
    %tmp10 = arith.constant dense<1.000000e+00> : tensor<256xf32> loc(#loc32)
    %cst_1 = arith.constant dense<50304> : tensor<256xi32> loc(#loc1)
    %tmp7 = arith.constant dense<0> : tensor<256xi8> loc(#loc33)
    %c256_i32 = arith.constant 256 : i32 loc(#loc1)
    %xoffset = tt.get_program_id x : i32 loc(#loc34)
    %xoffset_2 = arith.muli %xoffset, %c256_i32 : i32 loc(#loc35)
    %xindex = tt.make_range {end = 256 : i32, start = 0 : i32} : tensor<256xi32> loc(#loc36)
    %xindex_3 = tt.splat %xoffset_2 : i32 -> tensor<256xi32> loc(#loc37)
    %xindex_4 = arith.addi %xindex_3, %xindex : tensor<256xi32> loc(#loc37)
    %tmp0 = tt.splat %in_ptr0 : !tt.ptr<i64> -> tensor<256x!tt.ptr<i64>> loc(#loc38)
    %tmp0_5 = tt.addptr %tmp0, %xindex_4 : tensor<256x!tt.ptr<i64>>, tensor<256xi32> loc(#loc38)
    %tmp0_6 = tt.load %tmp0_5 : tensor<256x!tt.ptr<i64>> loc(#loc39)
    %tmp7_7 = tt.splat %in_ptr2 : !tt.ptr<i1> -> tensor<256x!tt.ptr<i1>> loc(#loc40)
    %tmp7_8 = tt.addptr %tmp7_7, %xindex_4 : tensor<256x!tt.ptr<i1>>, tensor<256xi32> loc(#loc40)
    %tmp7_9 = tt.bitcast %tmp7_8 : tensor<256x!tt.ptr<i1>> -> tensor<256x!tt.ptr<i8>> loc(#loc33)
    %tmp7_10 = tt.load %tmp7_9 : tensor<256x!tt.ptr<i8>> loc(#loc33)
    %tmp7_11 = arith.cmpi ne, %tmp7_10, %tmp7 : tensor<256xi8> loc(#loc33)
    %tmp2 = arith.addi %tmp0_6, %cst_0 : tensor<256xi64> loc(#loc41)
    %tmp3 = arith.cmpi slt, %tmp0_6, %cst : tensor<256xi64> loc(#loc42)
    %tmp4 = arith.select %tmp3, %tmp2, %tmp0_6 : tensor<256xi1>, tensor<256xi64> loc(#loc43)
    %0 = arith.cmpi sge, %tmp4, %cst : tensor<256xi64> loc(#loc14)
    %1 = arith.cmpi slt, %tmp4, %cst_0 : tensor<256xi64> loc(#loc15)
    %2 = arith.andi %0, %1 : tensor<256xi1> loc(#loc16)
    tt.assert %2, "index out of bounds: 0 <= tmp4 < 50304" : tensor<256xi1> loc(#loc17)
    %tmp6 = arith.muli %xindex_4, %cst_1 : tensor<256xi32> loc(#loc44)
    %tmp6_12 = arith.extsi %tmp6 : tensor<256xi32> to tensor<256xi64> loc(#loc45)
    %tmp6_13 = arith.addi %tmp4, %tmp6_12 : tensor<256xi64> loc(#loc45)
    %tmp6_14 = tt.splat %in_ptr1 : !tt.ptr<f32> -> tensor<256x!tt.ptr<f32>> loc(#loc46)
    %tmp6_15 = tt.addptr %tmp6_14, %tmp6_13 : tensor<256x!tt.ptr<f32>>, tensor<256xi64> loc(#loc46)
    %tmp6_16 = tt.load %tmp6_15 evictionPolicy = evict_last : tensor<256x!tt.ptr<f32>> loc(#loc47)
    %tmp8 = arith.uitofp %tmp7_11 : tensor<256xi1> to tensor<256xf32> loc(#loc48)
    %tmp10_17 = arith.subf %tmp10, %tmp8 : tensor<256xf32> loc(#loc32)
    %tmp11 = arith.subf %tmp6_16, %tmp10_17 : tensor<256xf32> loc(#loc49)
    %3 = tt.splat %out_ptr0 : !tt.ptr<f32> -> tensor<256x!tt.ptr<f32>> loc(#loc24)
    %4 = tt.addptr %3, %tmp6_13 : tensor<256x!tt.ptr<f32>>, tensor<256xi64> loc(#loc24)
    tt.store %4, %tmp11 : tensor<256x!tt.ptr<f32>> loc(#loc25)
    tt.return loc(#loc26)
  } loc(#loc)
} loc(#loc)
#loc1 = loc(unknown)
#loc2 = loc("/iopsstor/scratch/cscs/course_00313/gipfelsturm/.inductor_cache/6x/c6x6bmx44vjdjlfvngje7ilh5omf4r7o27pssg6fuswqh44ub2jk.py":34:19)
#loc3 = loc("/iopsstor/scratch/cscs/course_00313/gipfelsturm/.inductor_cache/6x/c6x6bmx44vjdjlfvngje7ilh5omf4r7o27pssg6fuswqh44ub2jk.py":25:35)
#loc4 = loc("/iopsstor/scratch/cscs/course_00313/gipfelsturm/.inductor_cache/6x/c6x6bmx44vjdjlfvngje7ilh5omf4r7o27pssg6fuswqh44ub2jk.py":20:28)
#loc5 = loc("/iopsstor/scratch/cscs/course_00313/gipfelsturm/.inductor_cache/6x/c6x6bmx44vjdjlfvngje7ilh5omf4r7o27pssg6fuswqh44ub2jk.py":20:33)
#loc6 = loc("/iopsstor/scratch/cscs/course_00313/gipfelsturm/.inductor_cache/6x/c6x6bmx44vjdjlfvngje7ilh5omf4r7o27pssg6fuswqh44ub2jk.py":21:36)
#loc7 = loc("/iopsstor/scratch/cscs/course_00313/gipfelsturm/.inductor_cache/6x/c6x6bmx44vjdjlfvngje7ilh5omf4r7o27pssg6fuswqh44ub2jk.py":21:23)
#loc8 = loc("/iopsstor/scratch/cscs/course_00313/gipfelsturm/.inductor_cache/6x/c6x6bmx44vjdjlfvngje7ilh5omf4r7o27pssg6fuswqh44ub2jk.py":24:30)
#loc9 = loc("/iopsstor/scratch/cscs/course_00313/gipfelsturm/.inductor_cache/6x/c6x6bmx44vjdjlfvngje7ilh5omf4r7o27pssg6fuswqh44ub2jk.py":24:35)
#loc10 = loc("/iopsstor/scratch/cscs/course_00313/gipfelsturm/.inductor_cache/6x/c6x6bmx44vjdjlfvngje7ilh5omf4r7o27pssg6fuswqh44ub2jk.py":25:30)
#loc11 = loc("/iopsstor/scratch/cscs/course_00313/gipfelsturm/.inductor_cache/6x/c6x6bmx44vjdjlfvngje7ilh5omf4r7o27pssg6fuswqh44ub2jk.py":27:18)
#loc12 = loc("/iopsstor/scratch/cscs/course_00313/gipfelsturm/.inductor_cache/6x/c6x6bmx44vjdjlfvngje7ilh5omf4r7o27pssg6fuswqh44ub2jk.py":28:18)
#loc13 = loc("/iopsstor/scratch/cscs/course_00313/gipfelsturm/.inductor_cache/6x/c6x6bmx44vjdjlfvngje7ilh5omf4r7o27pssg6fuswqh44ub2jk.py":29:32)
#loc14 = loc("/iopsstor/scratch/cscs/course_00313/gipfelsturm/.inductor_cache/6x/c6x6bmx44vjdjlfvngje7ilh5omf4r7o27pssg6fuswqh44ub2jk.py":30:27)
#loc15 = loc("/iopsstor/scratch/cscs/course_00313/gipfelsturm/.inductor_cache/6x/c6x6bmx44vjdjlfvngje7ilh5omf4r7o27pssg6fuswqh44ub2jk.py":30:43)
#loc16 = loc("/iopsstor/scratch/cscs/course_00313/gipfelsturm/.inductor_cache/6x/c6x6bmx44vjdjlfvngje7ilh5omf4r7o27pssg6fuswqh44ub2jk.py":30:36)
#loc17 = loc("/iopsstor/scratch/cscs/course_00313/gipfelsturm/.inductor_cache/6x/c6x6bmx44vjdjlfvngje7ilh5omf4r7o27pssg6fuswqh44ub2jk.py":30:51)
#loc18 = loc("/iopsstor/scratch/cscs/course_00313/gipfelsturm/.inductor_cache/6x/c6x6bmx44vjdjlfvngje7ilh5omf4r7o27pssg6fuswqh44ub2jk.py":31:43)
#loc19 = loc("/iopsstor/scratch/cscs/course_00313/gipfelsturm/.inductor_cache/6x/c6x6bmx44vjdjlfvngje7ilh5omf4r7o27pssg6fuswqh44ub2jk.py":31:37)
#loc20 = loc("/iopsstor/scratch/cscs/course_00313/gipfelsturm/.inductor_cache/6x/c6x6bmx44vjdjlfvngje7ilh5omf4r7o27pssg6fuswqh44ub2jk.py":31:30)
#loc21 = loc("/iopsstor/scratch/cscs/course_00313/gipfelsturm/.inductor_cache/6x/c6x6bmx44vjdjlfvngje7ilh5omf4r7o27pssg6fuswqh44ub2jk.py":31:48)
#loc22 = loc("/iopsstor/scratch/cscs/course_00313/gipfelsturm/.inductor_cache/6x/c6x6bmx44vjdjlfvngje7ilh5omf4r7o27pssg6fuswqh44ub2jk.py":32:19)
#loc23 = loc("/iopsstor/scratch/cscs/course_00313/gipfelsturm/.inductor_cache/6x/c6x6bmx44vjdjlfvngje7ilh5omf4r7o27pssg6fuswqh44ub2jk.py":35:19)
#loc24 = loc("/iopsstor/scratch/cscs/course_00313/gipfelsturm/.inductor_cache/6x/c6x6bmx44vjdjlfvngje7ilh5omf4r7o27pssg6fuswqh44ub2jk.py":36:25)
#loc25 = loc("/iopsstor/scratch/cscs/course_00313/gipfelsturm/.inductor_cache/6x/c6x6bmx44vjdjlfvngje7ilh5omf4r7o27pssg6fuswqh44ub2jk.py":36:50)
#loc26 = loc("/iopsstor/scratch/cscs/course_00313/gipfelsturm/.inductor_cache/6x/c6x6bmx44vjdjlfvngje7ilh5omf4r7o27pssg6fuswqh44ub2jk.py":36:4)
#loc32 = loc("tmp10"(#loc2))
#loc33 = loc("tmp7"(#loc3))
#loc34 = loc("xoffset"(#loc4))
#loc35 = loc("xoffset"(#loc5))
#loc36 = loc("xindex"(#loc6))
#loc37 = loc("xindex"(#loc7))
#loc38 = loc("tmp0"(#loc8))
#loc39 = loc("tmp0"(#loc9))
#loc40 = loc("tmp7"(#loc10))
#loc41 = loc("tmp2"(#loc11))
#loc42 = loc("tmp3"(#loc12))
#loc43 = loc("tmp4"(#loc13))
#loc44 = loc("tmp6"(#loc18))
#loc45 = loc("tmp6"(#loc19))
#loc46 = loc("tmp6"(#loc20))
#loc47 = loc("tmp6"(#loc21))
#loc48 = loc("tmp8"(#loc22))
#loc49 = loc("tmp11"(#loc23))
