#loc = loc("/iopsstor/scratch/cscs/course_00313/gipfelsturm/.inductor_cache/wm/cwmwf6s2irsomrdp23fmyh3vxrw7f3nwvy25tjkxegpqijb3qo7c.py":18:0)
#loc22 = loc("in_ptr0"(#loc))
#loc23 = loc("in_ptr1"(#loc))
#loc24 = loc("out_ptr0"(#loc))
#loc25 = loc("out_ptr2"(#loc))
#loc26 = loc("xnumel"(#loc))
module {
  tt.func public @triton_poi_fused__to_copy_copy__mul_unsqueeze_view_2(%in_ptr0: !tt.ptr<f32> {tt.divisibility = 16 : i32} loc("in_ptr0"(#loc)), %in_ptr1: !tt.ptr<f32> {tt.divisibility = 16 : i32} loc("in_ptr1"(#loc)), %out_ptr0: !tt.ptr<bf16> {tt.divisibility = 16 : i32} loc("out_ptr0"(#loc)), %out_ptr2: !tt.ptr<f32> {tt.divisibility = 16 : i32} loc("out_ptr2"(#loc)), %xnumel: i32 {tt.divisibility = 16 : i32} loc("xnumel"(#loc))) attributes {noinline = false} {
    %xnumel_0 = arith.constant 824180736 : i32 loc(#loc27)
    %xoffset = tt.get_program_id x : i32 loc(#loc28)
    %xoffset_1 = arith.constant 512 : i32 loc(#loc29)
    %xoffset_2 = arith.constant 512 : i32 loc(#loc29)
    %xoffset_3 = arith.muli %xoffset, %xoffset_2 : i32 loc(#loc29)
    %xindex = tt.make_range {end = 512 : i32, start = 0 : i32} : tensor<512xi32> loc(#loc30)
    %xindex_4 = tt.splat %xoffset_3 : i32 -> tensor<512xi32> loc(#loc31)
    %xindex_5 = arith.addi %xindex_4, %xindex : tensor<512xi32> loc(#loc31)
    %xmask = arith.constant true loc(#loc32)
    %xmask_6 = arith.constant dense<true> : tensor<512xi1> loc(#loc32)
    %x1 = arith.constant 50304 : i32 loc(#loc33)
    %x1_7 = arith.constant 50304 : i32 loc(#loc33)
    %x1_8 = arith.constant dense<50304> : tensor<512xi32> loc(#loc33)
    %x1_9 = arith.divsi %xindex_5, %x1_8 : tensor<512xi32> loc(#loc33)
    %x1_10 = arith.constant 4 : i32 loc(#loc34)
    %x1_11 = arith.constant 4 : i32 loc(#loc34)
    %x1_12 = arith.constant dense<4> : tensor<512xi32> loc(#loc34)
    %x1_13 = arith.remsi %x1_9, %x1_12 : tensor<512xi32> loc(#loc34)
    %x2 = arith.constant 201216 : i32 loc(#loc35)
    %x2_14 = arith.constant 201216 : i32 loc(#loc35)
    %x2_15 = arith.constant dense<201216> : tensor<512xi32> loc(#loc35)
    %x2_16 = arith.divsi %xindex_5, %x2_15 : tensor<512xi32> loc(#loc35)
    %tmp0 = tt.splat %in_ptr0 : !tt.ptr<f32> -> tensor<512x!tt.ptr<f32>> loc(#loc36)
    %tmp0_17 = tt.addptr %tmp0, %xindex_5 : tensor<512x!tt.ptr<f32>>, tensor<512xi32> loc(#loc36)
    %tmp0_18 = tt.load %tmp0_17 : tensor<512x!tt.ptr<f32>> loc(#loc37)
    %tmp1 = arith.constant 4096 : i32 loc(#loc38)
    %tmp1_19 = arith.constant 4096 : i32 loc(#loc38)
    %tmp1_20 = arith.constant dense<4096> : tensor<512xi32> loc(#loc38)
    %tmp1_21 = arith.muli %tmp1_20, %x1_13 : tensor<512xi32> loc(#loc38)
    %tmp1_22 = arith.addi %x2_16, %tmp1_21 : tensor<512xi32> loc(#loc39)
    %tmp1_23 = tt.splat %in_ptr1 : !tt.ptr<f32> -> tensor<512x!tt.ptr<f32>> loc(#loc40)
    %tmp1_24 = tt.addptr %tmp1_23, %tmp1_22 : tensor<512x!tt.ptr<f32>>, tensor<512xi32> loc(#loc40)
    %tmp1_25 = tt.load %tmp1_24 evictionPolicy = evict_last : tensor<512x!tt.ptr<f32>> loc(#loc41)
    %tmp2 = arith.mulf %tmp0_18, %tmp1_25 : tensor<512xf32> loc(#loc42)
    %0 = tt.splat %out_ptr0 : !tt.ptr<bf16> -> tensor<512x!tt.ptr<bf16>> loc(#loc17)
    %1 = tt.addptr %0, %xindex_5 : tensor<512x!tt.ptr<bf16>>, tensor<512xi32> loc(#loc17)
    %2 = arith.truncf %tmp2 : tensor<512xf32> to tensor<512xbf16> loc(#loc18)
    tt.store %1, %2 : tensor<512x!tt.ptr<bf16>> loc(#loc18)
    %3 = tt.splat %out_ptr2 : !tt.ptr<f32> -> tensor<512x!tt.ptr<f32>> loc(#loc19)
    %4 = tt.addptr %3, %xindex_5 : tensor<512x!tt.ptr<f32>>, tensor<512xi32> loc(#loc19)
    tt.store %4, %tmp2 : tensor<512x!tt.ptr<f32>> loc(#loc20)
    tt.return loc(#loc21)
  } loc(#loc)
} loc(#loc)
#loc1 = loc("/iopsstor/scratch/cscs/course_00313/gipfelsturm/.inductor_cache/wm/cwmwf6s2irsomrdp23fmyh3vxrw7f3nwvy25tjkxegpqijb3qo7c.py":19:13)
#loc2 = loc("/iopsstor/scratch/cscs/course_00313/gipfelsturm/.inductor_cache/wm/cwmwf6s2irsomrdp23fmyh3vxrw7f3nwvy25tjkxegpqijb3qo7c.py":20:28)
#loc3 = loc("/iopsstor/scratch/cscs/course_00313/gipfelsturm/.inductor_cache/wm/cwmwf6s2irsomrdp23fmyh3vxrw7f3nwvy25tjkxegpqijb3qo7c.py":20:33)
#loc4 = loc("/iopsstor/scratch/cscs/course_00313/gipfelsturm/.inductor_cache/wm/cwmwf6s2irsomrdp23fmyh3vxrw7f3nwvy25tjkxegpqijb3qo7c.py":21:36)
#loc5 = loc("/iopsstor/scratch/cscs/course_00313/gipfelsturm/.inductor_cache/wm/cwmwf6s2irsomrdp23fmyh3vxrw7f3nwvy25tjkxegpqijb3qo7c.py":21:23)
#loc6 = loc("/iopsstor/scratch/cscs/course_00313/gipfelsturm/.inductor_cache/wm/cwmwf6s2irsomrdp23fmyh3vxrw7f3nwvy25tjkxegpqijb3qo7c.py":22:36)
#loc7 = loc("/iopsstor/scratch/cscs/course_00313/gipfelsturm/.inductor_cache/wm/cwmwf6s2irsomrdp23fmyh3vxrw7f3nwvy25tjkxegpqijb3qo7c.py":24:21)
#loc8 = loc("/iopsstor/scratch/cscs/course_00313/gipfelsturm/.inductor_cache/wm/cwmwf6s2irsomrdp23fmyh3vxrw7f3nwvy25tjkxegpqijb3qo7c.py":24:30)
#loc9 = loc("/iopsstor/scratch/cscs/course_00313/gipfelsturm/.inductor_cache/wm/cwmwf6s2irsomrdp23fmyh3vxrw7f3nwvy25tjkxegpqijb3qo7c.py":25:19)
#loc10 = loc("/iopsstor/scratch/cscs/course_00313/gipfelsturm/.inductor_cache/wm/cwmwf6s2irsomrdp23fmyh3vxrw7f3nwvy25tjkxegpqijb3qo7c.py":26:30)
#loc11 = loc("/iopsstor/scratch/cscs/course_00313/gipfelsturm/.inductor_cache/wm/cwmwf6s2irsomrdp23fmyh3vxrw7f3nwvy25tjkxegpqijb3qo7c.py":26:35)
#loc12 = loc("/iopsstor/scratch/cscs/course_00313/gipfelsturm/.inductor_cache/wm/cwmwf6s2irsomrdp23fmyh3vxrw7f3nwvy25tjkxegpqijb3qo7c.py":27:40)
#loc13 = loc("/iopsstor/scratch/cscs/course_00313/gipfelsturm/.inductor_cache/wm/cwmwf6s2irsomrdp23fmyh3vxrw7f3nwvy25tjkxegpqijb3qo7c.py":27:35)
#loc14 = loc("/iopsstor/scratch/cscs/course_00313/gipfelsturm/.inductor_cache/wm/cwmwf6s2irsomrdp23fmyh3vxrw7f3nwvy25tjkxegpqijb3qo7c.py":27:30)
#loc15 = loc("/iopsstor/scratch/cscs/course_00313/gipfelsturm/.inductor_cache/wm/cwmwf6s2irsomrdp23fmyh3vxrw7f3nwvy25tjkxegpqijb3qo7c.py":27:45)
#loc16 = loc("/iopsstor/scratch/cscs/course_00313/gipfelsturm/.inductor_cache/wm/cwmwf6s2irsomrdp23fmyh3vxrw7f3nwvy25tjkxegpqijb3qo7c.py":28:18)
#loc17 = loc("/iopsstor/scratch/cscs/course_00313/gipfelsturm/.inductor_cache/wm/cwmwf6s2irsomrdp23fmyh3vxrw7f3nwvy25tjkxegpqijb3qo7c.py":30:25)
#loc18 = loc("/iopsstor/scratch/cscs/course_00313/gipfelsturm/.inductor_cache/wm/cwmwf6s2irsomrdp23fmyh3vxrw7f3nwvy25tjkxegpqijb3qo7c.py":30:36)
#loc19 = loc("/iopsstor/scratch/cscs/course_00313/gipfelsturm/.inductor_cache/wm/cwmwf6s2irsomrdp23fmyh3vxrw7f3nwvy25tjkxegpqijb3qo7c.py":31:25)
#loc20 = loc("/iopsstor/scratch/cscs/course_00313/gipfelsturm/.inductor_cache/wm/cwmwf6s2irsomrdp23fmyh3vxrw7f3nwvy25tjkxegpqijb3qo7c.py":31:36)
#loc21 = loc("/iopsstor/scratch/cscs/course_00313/gipfelsturm/.inductor_cache/wm/cwmwf6s2irsomrdp23fmyh3vxrw7f3nwvy25tjkxegpqijb3qo7c.py":31:4)
#loc27 = loc("xnumel"(#loc1))
#loc28 = loc("xoffset"(#loc2))
#loc29 = loc("xoffset"(#loc3))
#loc30 = loc("xindex"(#loc4))
#loc31 = loc("xindex"(#loc5))
#loc32 = loc("xmask"(#loc6))
#loc33 = loc("x1"(#loc7))
#loc34 = loc("x1"(#loc8))
#loc35 = loc("x2"(#loc9))
#loc36 = loc("tmp0"(#loc10))
#loc37 = loc("tmp0"(#loc11))
#loc38 = loc("tmp1"(#loc12))
#loc39 = loc("tmp1"(#loc13))
#loc40 = loc("tmp1"(#loc14))
#loc41 = loc("tmp1"(#loc15))
#loc42 = loc("tmp2"(#loc16))
