#loc = loc("/iopsstor/scratch/cscs/course_00313/gipfelsturm/.inductor_cache/xw/cxwxedrewwgme6g3zfslimhg6anhhay7dfpb5nvgh2meqikaee5e.py":18:0)
#loc28 = loc("in_ptr0"(#loc))
#loc29 = loc("out_ptr0"(#loc))
#loc30 = loc("xnumel"(#loc))
module {
  tt.func public @triton_poi_fused_mul_silu_split_0(%in_ptr0: !tt.ptr<bf16> {tt.divisibility = 16 : i32} loc("in_ptr0"(#loc)), %out_ptr0: !tt.ptr<bf16> {tt.divisibility = 16 : i32} loc("out_ptr0"(#loc)), %xnumel: i32 {tt.divisibility = 16 : i32} loc("xnumel"(#loc))) attributes {noinline = false} {
    %tmp2 = arith.constant dense<0.000000e+00> : tensor<1024xf32> loc(#loc50)
    %tmp2_0 = arith.constant dense<1.000000e+00> : tensor<1024xf32> loc(#loc51)
    %cst = arith.constant dense<4096> : tensor<1024xi32> loc(#loc3)
    %cst_1 = arith.constant dense<2048> : tensor<1024xi32> loc(#loc3)
    %c1024_i32 = arith.constant 1024 : i32 loc(#loc3)
    %xoffset = tt.get_program_id x : i32 loc(#loc32)
    %xoffset_2 = arith.muli %xoffset, %c1024_i32 : i32 loc(#loc33)
    %xindex = tt.make_range {end = 1024 : i32, start = 0 : i32} : tensor<1024xi32> loc(#loc34)
    %xindex_3 = tt.splat %xoffset_2 : i32 -> tensor<1024xi32> loc(#loc35)
    %xindex_4 = arith.addi %xindex_3, %xindex : tensor<1024xi32> loc(#loc35)
    %x0 = arith.remsi %xindex_4, %cst_1 : tensor<1024xi32> loc(#loc36)
    %x1 = arith.divsi %xindex_4, %cst_1 : tensor<1024xi32> loc(#loc37)
    %tmp0 = arith.muli %x1, %cst : tensor<1024xi32> loc(#loc38)
    %tmp0_5 = arith.addi %x0, %tmp0 : tensor<1024xi32> loc(#loc39)
    %tmp0_6 = tt.splat %in_ptr0 : !tt.ptr<bf16> -> tensor<1024x!tt.ptr<bf16>> loc(#loc40)
    %tmp0_7 = tt.addptr %tmp0_6, %tmp0_5 : tensor<1024x!tt.ptr<bf16>>, tensor<1024xi32> loc(#loc40)
    %tmp0_8 = tt.load %tmp0_7 : tensor<1024x!tt.ptr<bf16>> loc(#loc41)
    %tmp0_9 = arith.extf %tmp0_8 : tensor<1024xbf16> to tensor<1024xf32> loc(#loc42)
    %tmp5 = arith.addi %x0, %cst_1 : tensor<1024xi32> loc(#loc43)
    %tmp5_10 = arith.addi %tmp5, %tmp0 : tensor<1024xi32> loc(#loc44)
    %tmp5_11 = tt.addptr %tmp0_6, %tmp5_10 : tensor<1024x!tt.ptr<bf16>>, tensor<1024xi32> loc(#loc45)
    %tmp5_12 = tt.load %tmp5_11 : tensor<1024x!tt.ptr<bf16>> loc(#loc46)
    %tmp5_13 = arith.extf %tmp5_12 : tensor<1024xbf16> to tensor<1024xf32> loc(#loc47)
    %tmp2_14 = arith.subf %tmp2, %tmp0_9 : tensor<1024xf32> loc(#loc50)
    %tmp2_15 = math.exp %tmp2_14 : tensor<1024xf32> loc(#loc52)
    %tmp2_16 = arith.addf %tmp2_15, %tmp2_0 : tensor<1024xf32> loc(#loc53)
    %tmp2_17 = arith.divf %tmp2_0, %tmp2_16 : tensor<1024xf32> loc(#loc54)
    %tmp3 = arith.mulf %tmp0_9, %tmp2_17 : tensor<1024xf32> loc(#loc48)
    %tmp6 = arith.mulf %tmp3, %tmp5_13 : tensor<1024xf32> loc(#loc49)
    %0 = tt.splat %out_ptr0 : !tt.ptr<bf16> -> tensor<1024x!tt.ptr<bf16>> loc(#loc25)
    %1 = tt.addptr %0, %xindex_4 : tensor<1024x!tt.ptr<bf16>>, tensor<1024xi32> loc(#loc25)
    %2 = arith.truncf %tmp6 : tensor<1024xf32> to tensor<1024xbf16> loc(#loc26)
    tt.store %1, %2 : tensor<1024x!tt.ptr<bf16>> loc(#loc26)
    tt.return loc(#loc27)
  } loc(#loc)
} loc(#loc)
#loc1 = loc("/usr/local/lib/python3.12/dist-packages/triton/language/standard.py":50:30)
#loc2 = loc("/iopsstor/scratch/cscs/course_00313/gipfelsturm/.inductor_cache/xw/cxwxedrewwgme6g3zfslimhg6anhhay7dfpb5nvgh2meqikaee5e.py":29:22)
#loc3 = loc(unknown)
#loc4 = loc("/iopsstor/scratch/cscs/course_00313/gipfelsturm/.inductor_cache/xw/cxwxedrewwgme6g3zfslimhg6anhhay7dfpb5nvgh2meqikaee5e.py":20:28)
#loc5 = loc("/iopsstor/scratch/cscs/course_00313/gipfelsturm/.inductor_cache/xw/cxwxedrewwgme6g3zfslimhg6anhhay7dfpb5nvgh2meqikaee5e.py":20:33)
#loc6 = loc("/iopsstor/scratch/cscs/course_00313/gipfelsturm/.inductor_cache/xw/cxwxedrewwgme6g3zfslimhg6anhhay7dfpb5nvgh2meqikaee5e.py":21:36)
#loc7 = loc("/iopsstor/scratch/cscs/course_00313/gipfelsturm/.inductor_cache/xw/cxwxedrewwgme6g3zfslimhg6anhhay7dfpb5nvgh2meqikaee5e.py":21:23)
#loc8 = loc("/iopsstor/scratch/cscs/course_00313/gipfelsturm/.inductor_cache/xw/cxwxedrewwgme6g3zfslimhg6anhhay7dfpb5nvgh2meqikaee5e.py":23:19)
#loc9 = loc("/iopsstor/scratch/cscs/course_00313/gipfelsturm/.inductor_cache/xw/cxwxedrewwgme6g3zfslimhg6anhhay7dfpb5nvgh2meqikaee5e.py":24:19)
#loc10 = loc("/iopsstor/scratch/cscs/course_00313/gipfelsturm/.inductor_cache/xw/cxwxedrewwgme6g3zfslimhg6anhhay7dfpb5nvgh2meqikaee5e.py":26:40)
#loc11 = loc("/iopsstor/scratch/cscs/course_00313/gipfelsturm/.inductor_cache/xw/cxwxedrewwgme6g3zfslimhg6anhhay7dfpb5nvgh2meqikaee5e.py":26:35)
#loc12 = loc("/iopsstor/scratch/cscs/course_00313/gipfelsturm/.inductor_cache/xw/cxwxedrewwgme6g3zfslimhg6anhhay7dfpb5nvgh2meqikaee5e.py":26:30)
#loc13 = loc("/iopsstor/scratch/cscs/course_00313/gipfelsturm/.inductor_cache/xw/cxwxedrewwgme6g3zfslimhg6anhhay7dfpb5nvgh2meqikaee5e.py":26:45)
#loc14 = loc("/iopsstor/scratch/cscs/course_00313/gipfelsturm/.inductor_cache/xw/cxwxedrewwgme6g3zfslimhg6anhhay7dfpb5nvgh2meqikaee5e.py":26:54)
#loc15 = loc("/iopsstor/scratch/cscs/course_00313/gipfelsturm/.inductor_cache/xw/cxwxedrewwgme6g3zfslimhg6anhhay7dfpb5nvgh2meqikaee5e.py":27:37)
#loc16 = loc("/iopsstor/scratch/cscs/course_00313/gipfelsturm/.inductor_cache/xw/cxwxedrewwgme6g3zfslimhg6anhhay7dfpb5nvgh2meqikaee5e.py":27:42)
#loc17 = loc("/iopsstor/scratch/cscs/course_00313/gipfelsturm/.inductor_cache/xw/cxwxedrewwgme6g3zfslimhg6anhhay7dfpb5nvgh2meqikaee5e.py":27:30)
#loc18 = loc("/iopsstor/scratch/cscs/course_00313/gipfelsturm/.inductor_cache/xw/cxwxedrewwgme6g3zfslimhg6anhhay7dfpb5nvgh2meqikaee5e.py":27:52)
#loc19 = loc("/iopsstor/scratch/cscs/course_00313/gipfelsturm/.inductor_cache/xw/cxwxedrewwgme6g3zfslimhg6anhhay7dfpb5nvgh2meqikaee5e.py":27:61)
#loc20 = loc("/usr/local/lib/python3.12/dist-packages/triton/language/standard.py":50:29)
#loc21 = loc("/usr/local/lib/python3.12/dist-packages/triton/language/standard.py":50:20)
#loc22 = loc("/usr/local/lib/python3.12/dist-packages/triton/language/standard.py":50:16)
#loc23 = loc("/iopsstor/scratch/cscs/course_00313/gipfelsturm/.inductor_cache/xw/cxwxedrewwgme6g3zfslimhg6anhhay7dfpb5nvgh2meqikaee5e.py":30:18)
#loc24 = loc("/iopsstor/scratch/cscs/course_00313/gipfelsturm/.inductor_cache/xw/cxwxedrewwgme6g3zfslimhg6anhhay7dfpb5nvgh2meqikaee5e.py":32:18)
#loc25 = loc("/iopsstor/scratch/cscs/course_00313/gipfelsturm/.inductor_cache/xw/cxwxedrewwgme6g3zfslimhg6anhhay7dfpb5nvgh2meqikaee5e.py":33:25)
#loc26 = loc("/iopsstor/scratch/cscs/course_00313/gipfelsturm/.inductor_cache/xw/cxwxedrewwgme6g3zfslimhg6anhhay7dfpb5nvgh2meqikaee5e.py":33:36)
#loc27 = loc("/iopsstor/scratch/cscs/course_00313/gipfelsturm/.inductor_cache/xw/cxwxedrewwgme6g3zfslimhg6anhhay7dfpb5nvgh2meqikaee5e.py":33:4)
#loc31 = loc("tmp2"(#loc2))
#loc32 = loc("xoffset"(#loc4))
#loc33 = loc("xoffset"(#loc5))
#loc34 = loc("xindex"(#loc6))
#loc35 = loc("xindex"(#loc7))
#loc36 = loc("x0"(#loc8))
#loc37 = loc("x1"(#loc9))
#loc38 = loc("tmp0"(#loc10))
#loc39 = loc("tmp0"(#loc11))
#loc40 = loc("tmp0"(#loc12))
#loc41 = loc("tmp0"(#loc13))
#loc42 = loc("tmp0"(#loc14))
#loc43 = loc("tmp5"(#loc15))
#loc44 = loc("tmp5"(#loc16))
#loc45 = loc("tmp5"(#loc17))
#loc46 = loc("tmp5"(#loc18))
#loc47 = loc("tmp5"(#loc19))
#loc48 = loc("tmp3"(#loc23))
#loc49 = loc("tmp6"(#loc24))
#loc50 = loc(callsite(#loc1 at #loc31))
#loc51 = loc(callsite(#loc3 at #loc31))
#loc52 = loc(callsite(#loc20 at #loc31))
#loc53 = loc(callsite(#loc21 at #loc31))
#loc54 = loc(callsite(#loc22 at #loc31))
