#loc = loc("/iopsstor/scratch/cscs/course_00313/gipfelsturm/.inductor_cache/3a/c3aey5ruhwo57botrmjzrdwzfom63j4yeqrysaopmzrqwy4y6d2h.py":18:0)
#loc17 = loc("in_ptr0"(#loc))
#loc18 = loc("in_ptr1"(#loc))
#loc19 = loc("out_ptr0"(#loc))
#loc20 = loc("xnumel"(#loc))
module {
  tt.func public @triton_poi_fused_add_0(%in_ptr0: !tt.ptr<bf16> {tt.divisibility = 16 : i32} loc("in_ptr0"(#loc)), %in_ptr1: !tt.ptr<bf16> {tt.divisibility = 16 : i32} loc("in_ptr1"(#loc)), %out_ptr0: !tt.ptr<bf16> {tt.divisibility = 16 : i32} loc("out_ptr0"(#loc)), %xnumel: i32 {tt.divisibility = 16 : i32} loc("xnumel"(#loc))) attributes {noinline = false} {
    %xnumel_0 = arith.constant 25165824 : i32 loc(#loc21)
    %xoffset = tt.get_program_id x : i32 loc(#loc22)
    %xoffset_1 = arith.constant 1024 : i32 loc(#loc23)
    %xoffset_2 = arith.constant 1024 : i32 loc(#loc23)
    %xoffset_3 = arith.muli %xoffset, %xoffset_2 : i32 loc(#loc23)
    %xindex = tt.make_range {end = 1024 : i32, start = 0 : i32} : tensor<1024xi32> loc(#loc24)
    %xindex_4 = tt.splat %xoffset_3 : i32 -> tensor<1024xi32> loc(#loc25)
    %xindex_5 = arith.addi %xindex_4, %xindex : tensor<1024xi32> loc(#loc25)
    %xmask = arith.constant true loc(#loc26)
    %xmask_6 = arith.constant dense<true> : tensor<1024xi1> loc(#loc26)
    %tmp0 = tt.splat %in_ptr0 : !tt.ptr<bf16> -> tensor<1024x!tt.ptr<bf16>> loc(#loc27)
    %tmp0_7 = tt.addptr %tmp0, %xindex_5 : tensor<1024x!tt.ptr<bf16>>, tensor<1024xi32> loc(#loc27)
    %tmp0_8 = tt.load %tmp0_7 : tensor<1024x!tt.ptr<bf16>> loc(#loc28)
    %tmp0_9 = arith.extf %tmp0_8 : tensor<1024xbf16> to tensor<1024xf32> loc(#loc29)
    %tmp1 = tt.splat %in_ptr1 : !tt.ptr<bf16> -> tensor<1024x!tt.ptr<bf16>> loc(#loc30)
    %tmp1_10 = tt.addptr %tmp1, %xindex_5 : tensor<1024x!tt.ptr<bf16>>, tensor<1024xi32> loc(#loc30)
    %tmp1_11 = tt.load %tmp1_10 : tensor<1024x!tt.ptr<bf16>> loc(#loc31)
    %tmp1_12 = arith.extf %tmp1_11 : tensor<1024xbf16> to tensor<1024xf32> loc(#loc32)
    %tmp2 = arith.addf %tmp0_9, %tmp1_12 : tensor<1024xf32> loc(#loc33)
    %0 = tt.splat %out_ptr0 : !tt.ptr<bf16> -> tensor<1024x!tt.ptr<bf16>> loc(#loc14)
    %1 = tt.addptr %0, %xindex_5 : tensor<1024x!tt.ptr<bf16>>, tensor<1024xi32> loc(#loc14)
    %2 = arith.truncf %tmp2 : tensor<1024xf32> to tensor<1024xbf16> loc(#loc15)
    tt.store %1, %2 : tensor<1024x!tt.ptr<bf16>> loc(#loc15)
    tt.return loc(#loc16)
  } loc(#loc)
} loc(#loc)
#loc1 = loc("/iopsstor/scratch/cscs/course_00313/gipfelsturm/.inductor_cache/3a/c3aey5ruhwo57botrmjzrdwzfom63j4yeqrysaopmzrqwy4y6d2h.py":19:13)
#loc2 = loc("/iopsstor/scratch/cscs/course_00313/gipfelsturm/.inductor_cache/3a/c3aey5ruhwo57botrmjzrdwzfom63j4yeqrysaopmzrqwy4y6d2h.py":20:28)
#loc3 = loc("/iopsstor/scratch/cscs/course_00313/gipfelsturm/.inductor_cache/3a/c3aey5ruhwo57botrmjzrdwzfom63j4yeqrysaopmzrqwy4y6d2h.py":20:33)
#loc4 = loc("/iopsstor/scratch/cscs/course_00313/gipfelsturm/.inductor_cache/3a/c3aey5ruhwo57botrmjzrdwzfom63j4yeqrysaopmzrqwy4y6d2h.py":21:36)
#loc5 = loc("/iopsstor/scratch/cscs/course_00313/gipfelsturm/.inductor_cache/3a/c3aey5ruhwo57botrmjzrdwzfom63j4yeqrysaopmzrqwy4y6d2h.py":21:23)
#loc6 = loc("/iopsstor/scratch/cscs/course_00313/gipfelsturm/.inductor_cache/3a/c3aey5ruhwo57botrmjzrdwzfom63j4yeqrysaopmzrqwy4y6d2h.py":22:36)
#loc7 = loc("/iopsstor/scratch/cscs/course_00313/gipfelsturm/.inductor_cache/3a/c3aey5ruhwo57botrmjzrdwzfom63j4yeqrysaopmzrqwy4y6d2h.py":24:30)
#loc8 = loc("/iopsstor/scratch/cscs/course_00313/gipfelsturm/.inductor_cache/3a/c3aey5ruhwo57botrmjzrdwzfom63j4yeqrysaopmzrqwy4y6d2h.py":24:35)
#loc9 = loc("/iopsstor/scratch/cscs/course_00313/gipfelsturm/.inductor_cache/3a/c3aey5ruhwo57botrmjzrdwzfom63j4yeqrysaopmzrqwy4y6d2h.py":24:44)
#loc10 = loc("/iopsstor/scratch/cscs/course_00313/gipfelsturm/.inductor_cache/3a/c3aey5ruhwo57botrmjzrdwzfom63j4yeqrysaopmzrqwy4y6d2h.py":25:30)
#loc11 = loc("/iopsstor/scratch/cscs/course_00313/gipfelsturm/.inductor_cache/3a/c3aey5ruhwo57botrmjzrdwzfom63j4yeqrysaopmzrqwy4y6d2h.py":25:35)
#loc12 = loc("/iopsstor/scratch/cscs/course_00313/gipfelsturm/.inductor_cache/3a/c3aey5ruhwo57botrmjzrdwzfom63j4yeqrysaopmzrqwy4y6d2h.py":25:44)
#loc13 = loc("/iopsstor/scratch/cscs/course_00313/gipfelsturm/.inductor_cache/3a/c3aey5ruhwo57botrmjzrdwzfom63j4yeqrysaopmzrqwy4y6d2h.py":26:18)
#loc14 = loc("/iopsstor/scratch/cscs/course_00313/gipfelsturm/.inductor_cache/3a/c3aey5ruhwo57botrmjzrdwzfom63j4yeqrysaopmzrqwy4y6d2h.py":27:25)
#loc15 = loc("/iopsstor/scratch/cscs/course_00313/gipfelsturm/.inductor_cache/3a/c3aey5ruhwo57botrmjzrdwzfom63j4yeqrysaopmzrqwy4y6d2h.py":27:36)
#loc16 = loc("/iopsstor/scratch/cscs/course_00313/gipfelsturm/.inductor_cache/3a/c3aey5ruhwo57botrmjzrdwzfom63j4yeqrysaopmzrqwy4y6d2h.py":27:4)
#loc21 = loc("xnumel"(#loc1))
#loc22 = loc("xoffset"(#loc2))
#loc23 = loc("xoffset"(#loc3))
#loc24 = loc("xindex"(#loc4))
#loc25 = loc("xindex"(#loc5))
#loc26 = loc("xmask"(#loc6))
#loc27 = loc("tmp0"(#loc7))
#loc28 = loc("tmp0"(#loc8))
#loc29 = loc("tmp0"(#loc9))
#loc30 = loc("tmp1"(#loc10))
#loc31 = loc("tmp1"(#loc11))
#loc32 = loc("tmp1"(#loc12))
#loc33 = loc("tmp2"(#loc13))
