#loc = loc("/iopsstor/scratch/cscs/course_00313/gipfelsturm/.inductor_cache/24/c24bxiokgjrileihg2ejp7apzg6k3ab4ie4ctrdyd5azwu2jwzcz.py":18:0)
#loc16 = loc("in_ptr0"(#loc))
#loc17 = loc("in_ptr1"(#loc))
#loc18 = loc("out_ptr1"(#loc))
#loc19 = loc("xnumel"(#loc))
module {
  tt.func public @triton_poi_fused_copy__div_split_unsqueeze_1(%in_ptr0: !tt.ptr<f32> {tt.divisibility = 16 : i32} loc("in_ptr0"(#loc)), %in_ptr1: !tt.ptr<f32> {tt.divisibility = 16 : i32} loc("in_ptr1"(#loc)), %out_ptr1: !tt.ptr<f32> {tt.divisibility = 16 : i32} loc("out_ptr1"(#loc)), %xnumel: i32 {tt.divisibility = 16 : i32} loc("xnumel"(#loc))) attributes {noinline = false} {
    %tmp1 = arith.constant dense<32768> : tensor<512xi32> loc(#loc20)
    %x1 = arith.constant dense<50304> : tensor<512xi32> loc(#loc21)
    %c512_i32 = arith.constant 512 : i32 loc(#loc3)
    %xoffset = tt.get_program_id x : i32 loc(#loc22)
    %xoffset_0 = arith.muli %xoffset, %c512_i32 : i32 loc(#loc23)
    %xindex = tt.make_range {end = 512 : i32, start = 0 : i32} : tensor<512xi32> loc(#loc24)
    %xindex_1 = tt.splat %xoffset_0 : i32 -> tensor<512xi32> loc(#loc25)
    %xindex_2 = arith.addi %xindex_1, %xindex : tensor<512xi32> loc(#loc25)
    %x1_3 = arith.divsi %xindex_2, %x1 : tensor<512xi32> loc(#loc21)
    %tmp0 = tt.splat %in_ptr0 : !tt.ptr<f32> -> tensor<512x!tt.ptr<f32>> loc(#loc26)
    %tmp0_4 = tt.addptr %tmp0, %xindex_2 : tensor<512x!tt.ptr<f32>>, tensor<512xi32> loc(#loc26)
    %tmp0_5 = tt.load %tmp0_4 : tensor<512x!tt.ptr<f32>> loc(#loc27)
    %tmp1_6 = arith.addi %x1_3, %tmp1 : tensor<512xi32> loc(#loc20)
    %tmp1_7 = tt.splat %in_ptr1 : !tt.ptr<f32> -> tensor<512x!tt.ptr<f32>> loc(#loc28)
    %tmp1_8 = tt.addptr %tmp1_7, %tmp1_6 : tensor<512x!tt.ptr<f32>>, tensor<512xi32> loc(#loc28)
    %tmp1_9 = tt.load %tmp1_8 evictionPolicy = evict_last : tensor<512x!tt.ptr<f32>> loc(#loc29)
    %tmp2 = arith.divf %tmp0_5, %tmp1_9 : tensor<512xf32> loc(#loc30)
    %0 = tt.splat %out_ptr1 : !tt.ptr<f32> -> tensor<512x!tt.ptr<f32>> loc(#loc13)
    %1 = tt.addptr %0, %xindex_2 : tensor<512x!tt.ptr<f32>>, tensor<512xi32> loc(#loc13)
    tt.store %1, %tmp2 : tensor<512x!tt.ptr<f32>> loc(#loc14)
    tt.return loc(#loc15)
  } loc(#loc)
} loc(#loc)
#loc1 = loc("/iopsstor/scratch/cscs/course_00313/gipfelsturm/.inductor_cache/24/c24bxiokgjrileihg2ejp7apzg6k3ab4ie4ctrdyd5azwu2jwzcz.py":26:38)
#loc2 = loc("/iopsstor/scratch/cscs/course_00313/gipfelsturm/.inductor_cache/24/c24bxiokgjrileihg2ejp7apzg6k3ab4ie4ctrdyd5azwu2jwzcz.py":24:19)
#loc3 = loc(unknown)
#loc4 = loc("/iopsstor/scratch/cscs/course_00313/gipfelsturm/.inductor_cache/24/c24bxiokgjrileihg2ejp7apzg6k3ab4ie4ctrdyd5azwu2jwzcz.py":20:28)
#loc5 = loc("/iopsstor/scratch/cscs/course_00313/gipfelsturm/.inductor_cache/24/c24bxiokgjrileihg2ejp7apzg6k3ab4ie4ctrdyd5azwu2jwzcz.py":20:33)
#loc6 = loc("/iopsstor/scratch/cscs/course_00313/gipfelsturm/.inductor_cache/24/c24bxiokgjrileihg2ejp7apzg6k3ab4ie4ctrdyd5azwu2jwzcz.py":21:36)
#loc7 = loc("/iopsstor/scratch/cscs/course_00313/gipfelsturm/.inductor_cache/24/c24bxiokgjrileihg2ejp7apzg6k3ab4ie4ctrdyd5azwu2jwzcz.py":21:23)
#loc8 = loc("/iopsstor/scratch/cscs/course_00313/gipfelsturm/.inductor_cache/24/c24bxiokgjrileihg2ejp7apzg6k3ab4ie4ctrdyd5azwu2jwzcz.py":25:30)
#loc9 = loc("/iopsstor/scratch/cscs/course_00313/gipfelsturm/.inductor_cache/24/c24bxiokgjrileihg2ejp7apzg6k3ab4ie4ctrdyd5azwu2jwzcz.py":25:35)
#loc10 = loc("/iopsstor/scratch/cscs/course_00313/gipfelsturm/.inductor_cache/24/c24bxiokgjrileihg2ejp7apzg6k3ab4ie4ctrdyd5azwu2jwzcz.py":26:30)
#loc11 = loc("/iopsstor/scratch/cscs/course_00313/gipfelsturm/.inductor_cache/24/c24bxiokgjrileihg2ejp7apzg6k3ab4ie4ctrdyd5azwu2jwzcz.py":26:43)
#loc12 = loc("/iopsstor/scratch/cscs/course_00313/gipfelsturm/.inductor_cache/24/c24bxiokgjrileihg2ejp7apzg6k3ab4ie4ctrdyd5azwu2jwzcz.py":27:19)
#loc13 = loc("/iopsstor/scratch/cscs/course_00313/gipfelsturm/.inductor_cache/24/c24bxiokgjrileihg2ejp7apzg6k3ab4ie4ctrdyd5azwu2jwzcz.py":28:25)
#loc14 = loc("/iopsstor/scratch/cscs/course_00313/gipfelsturm/.inductor_cache/24/c24bxiokgjrileihg2ejp7apzg6k3ab4ie4ctrdyd5azwu2jwzcz.py":28:36)
#loc15 = loc("/iopsstor/scratch/cscs/course_00313/gipfelsturm/.inductor_cache/24/c24bxiokgjrileihg2ejp7apzg6k3ab4ie4ctrdyd5azwu2jwzcz.py":28:4)
#loc20 = loc("tmp1"(#loc1))
#loc21 = loc("x1"(#loc2))
#loc22 = loc("xoffset"(#loc4))
#loc23 = loc("xoffset"(#loc5))
#loc24 = loc("xindex"(#loc6))
#loc25 = loc("xindex"(#loc7))
#loc26 = loc("tmp0"(#loc8))
#loc27 = loc("tmp0"(#loc9))
#loc28 = loc("tmp1"(#loc10))
#loc29 = loc("tmp1"(#loc11))
#loc30 = loc("tmp2"(#loc12))
