#loc = loc("/iopsstor/scratch/cscs/course_00313/gipfelsturm/.inductor_cache/yv/cyvtvqszb73h4qvpfynn74nl4au2f6e5ieenslqo3g7jwbpsa6tf.py":18:0)
#loc17 = loc("in_ptr0"(#loc))
#loc18 = loc("out_ptr0"(#loc))
#loc19 = loc("xnumel"(#loc))
module {
  tt.func public @triton_poi_fused_log_split_sub_0(%in_ptr0: !tt.ptr<f32> {tt.divisibility = 16 : i32} loc("in_ptr0"(#loc)), %out_ptr0: !tt.ptr<f32> {tt.divisibility = 16 : i32} loc("out_ptr0"(#loc)), %xnumel: i32 {tt.divisibility = 16 : i32} loc("xnumel"(#loc))) attributes {noinline = false} {
    %xnumel_0 = arith.constant 32768 : i32 loc(#loc20)
    %xoffset = tt.get_program_id x : i32 loc(#loc21)
    %xoffset_1 = arith.constant 128 : i32 loc(#loc22)
    %xoffset_2 = arith.constant 128 : i32 loc(#loc22)
    %xoffset_3 = arith.muli %xoffset, %xoffset_2 : i32 loc(#loc22)
    %xindex = tt.make_range {end = 128 : i32, start = 0 : i32} : tensor<128xi32> loc(#loc23)
    %xindex_4 = tt.splat %xoffset_3 : i32 -> tensor<128xi32> loc(#loc24)
    %xindex_5 = arith.addi %xindex_4, %xindex : tensor<128xi32> loc(#loc24)
    %xmask = arith.constant true loc(#loc25)
    %xmask_6 = arith.constant dense<true> : tensor<128xi1> loc(#loc25)
    %tmp0 = arith.constant 32768 : i32 loc(#loc26)
    %tmp0_7 = arith.constant 32768 : i32 loc(#loc26)
    %tmp0_8 = arith.constant dense<32768> : tensor<128xi32> loc(#loc26)
    %tmp0_9 = arith.addi %tmp0_8, %xindex_5 : tensor<128xi32> loc(#loc26)
    %tmp0_10 = tt.splat %in_ptr0 : !tt.ptr<f32> -> tensor<128x!tt.ptr<f32>> loc(#loc27)
    %tmp0_11 = tt.addptr %tmp0_10, %tmp0_9 : tensor<128x!tt.ptr<f32>>, tensor<128xi32> loc(#loc27)
    %tmp0_12 = tt.load %tmp0_11 : tensor<128x!tt.ptr<f32>> loc(#loc28)
    %tmp2 = tt.splat %in_ptr0 : !tt.ptr<f32> -> tensor<128x!tt.ptr<f32>> loc(#loc29)
    %tmp2_13 = tt.addptr %tmp2, %xindex_5 : tensor<128x!tt.ptr<f32>>, tensor<128xi32> loc(#loc29)
    %tmp2_14 = tt.load %tmp2_13 : tensor<128x!tt.ptr<f32>> loc(#loc30)
    %tmp1 = math.log %tmp0_12 : tensor<128xf32> loc(#loc31)
    %tmp3 = arith.subf %tmp1, %tmp2_14 : tensor<128xf32> loc(#loc32)
    %0 = tt.splat %out_ptr0 : !tt.ptr<f32> -> tensor<128x!tt.ptr<f32>> loc(#loc14)
    %1 = tt.addptr %0, %xindex_5 : tensor<128x!tt.ptr<f32>>, tensor<128xi32> loc(#loc14)
    tt.store %1, %tmp3 : tensor<128x!tt.ptr<f32>> loc(#loc15)
    tt.return loc(#loc16)
  } loc(#loc)
} loc(#loc)
#loc1 = loc("/iopsstor/scratch/cscs/course_00313/gipfelsturm/.inductor_cache/yv/cyvtvqszb73h4qvpfynn74nl4au2f6e5ieenslqo3g7jwbpsa6tf.py":19:13)
#loc2 = loc("/iopsstor/scratch/cscs/course_00313/gipfelsturm/.inductor_cache/yv/cyvtvqszb73h4qvpfynn74nl4au2f6e5ieenslqo3g7jwbpsa6tf.py":20:28)
#loc3 = loc("/iopsstor/scratch/cscs/course_00313/gipfelsturm/.inductor_cache/yv/cyvtvqszb73h4qvpfynn74nl4au2f6e5ieenslqo3g7jwbpsa6tf.py":20:33)
#loc4 = loc("/iopsstor/scratch/cscs/course_00313/gipfelsturm/.inductor_cache/yv/cyvtvqszb73h4qvpfynn74nl4au2f6e5ieenslqo3g7jwbpsa6tf.py":21:36)
#loc5 = loc("/iopsstor/scratch/cscs/course_00313/gipfelsturm/.inductor_cache/yv/cyvtvqszb73h4qvpfynn74nl4au2f6e5ieenslqo3g7jwbpsa6tf.py":21:23)
#loc6 = loc("/iopsstor/scratch/cscs/course_00313/gipfelsturm/.inductor_cache/yv/cyvtvqszb73h4qvpfynn74nl4au2f6e5ieenslqo3g7jwbpsa6tf.py":22:36)
#loc7 = loc("/iopsstor/scratch/cscs/course_00313/gipfelsturm/.inductor_cache/yv/cyvtvqszb73h4qvpfynn74nl4au2f6e5ieenslqo3g7jwbpsa6tf.py":24:38)
#loc8 = loc("/iopsstor/scratch/cscs/course_00313/gipfelsturm/.inductor_cache/yv/cyvtvqszb73h4qvpfynn74nl4au2f6e5ieenslqo3g7jwbpsa6tf.py":24:30)
#loc9 = loc("/iopsstor/scratch/cscs/course_00313/gipfelsturm/.inductor_cache/yv/cyvtvqszb73h4qvpfynn74nl4au2f6e5ieenslqo3g7jwbpsa6tf.py":24:43)
#loc10 = loc("/iopsstor/scratch/cscs/course_00313/gipfelsturm/.inductor_cache/yv/cyvtvqszb73h4qvpfynn74nl4au2f6e5ieenslqo3g7jwbpsa6tf.py":25:30)
#loc11 = loc("/iopsstor/scratch/cscs/course_00313/gipfelsturm/.inductor_cache/yv/cyvtvqszb73h4qvpfynn74nl4au2f6e5ieenslqo3g7jwbpsa6tf.py":25:35)
#loc12 = loc("/iopsstor/scratch/cscs/course_00313/gipfelsturm/.inductor_cache/yv/cyvtvqszb73h4qvpfynn74nl4au2f6e5ieenslqo3g7jwbpsa6tf.py":26:23)
#loc13 = loc("/iopsstor/scratch/cscs/course_00313/gipfelsturm/.inductor_cache/yv/cyvtvqszb73h4qvpfynn74nl4au2f6e5ieenslqo3g7jwbpsa6tf.py":27:18)
#loc14 = loc("/iopsstor/scratch/cscs/course_00313/gipfelsturm/.inductor_cache/yv/cyvtvqszb73h4qvpfynn74nl4au2f6e5ieenslqo3g7jwbpsa6tf.py":28:25)
#loc15 = loc("/iopsstor/scratch/cscs/course_00313/gipfelsturm/.inductor_cache/yv/cyvtvqszb73h4qvpfynn74nl4au2f6e5ieenslqo3g7jwbpsa6tf.py":28:36)
#loc16 = loc("/iopsstor/scratch/cscs/course_00313/gipfelsturm/.inductor_cache/yv/cyvtvqszb73h4qvpfynn74nl4au2f6e5ieenslqo3g7jwbpsa6tf.py":28:4)
#loc20 = loc("xnumel"(#loc1))
#loc21 = loc("xoffset"(#loc2))
#loc22 = loc("xoffset"(#loc3))
#loc23 = loc("xindex"(#loc4))
#loc24 = loc("xindex"(#loc5))
#loc25 = loc("xmask"(#loc6))
#loc26 = loc("tmp0"(#loc7))
#loc27 = loc("tmp0"(#loc8))
#loc28 = loc("tmp0"(#loc9))
#loc29 = loc("tmp2"(#loc10))
#loc30 = loc("tmp2"(#loc11))
#loc31 = loc("tmp1"(#loc12))
#loc32 = loc("tmp3"(#loc13))
