#loc = loc("/iopsstor/scratch/cscs/course_00313/gipfelsturm/.inductor_cache/vx/cvxhj4c4fbnz3w4o72vwab45mdfl63w6swlsf5wqab2ky7lpqhud.py":18:0)
#loc16 = loc("in_ptr0"(#loc))
#loc17 = loc("in_ptr1"(#loc))
#loc18 = loc("out_ptr0"(#loc))
#loc19 = loc("xnumel"(#loc))
module {
  tt.func public @triton_poi_fused_add_0(%in_ptr0: !tt.ptr<bf16> {tt.divisibility = 16 : i32} loc("in_ptr0"(#loc)), %in_ptr1: !tt.ptr<bf16> {tt.divisibility = 16 : i32} loc("in_ptr1"(#loc)), %out_ptr0: !tt.ptr<bf16> {tt.divisibility = 16 : i32} loc("out_ptr0"(#loc)), %xnumel: i32 {tt.divisibility = 16 : i32} loc("xnumel"(#loc))) attributes {noinline = false} {
    %c512_i32 = arith.constant 512 : i32 loc(#loc1)
    %xoffset = tt.get_program_id x : i32 loc(#loc20)
    %xoffset_0 = arith.muli %xoffset, %c512_i32 : i32 loc(#loc21)
    %xindex = tt.make_range {end = 512 : i32, start = 0 : i32} : tensor<512xi32> loc(#loc22)
    %xindex_1 = tt.splat %xoffset_0 : i32 -> tensor<512xi32> loc(#loc23)
    %xindex_2 = arith.addi %xindex_1, %xindex : tensor<512xi32> loc(#loc23)
    %tmp0 = tt.splat %in_ptr0 : !tt.ptr<bf16> -> tensor<512x!tt.ptr<bf16>> loc(#loc24)
    %tmp0_3 = tt.addptr %tmp0, %xindex_2 : tensor<512x!tt.ptr<bf16>>, tensor<512xi32> loc(#loc24)
    %tmp0_4 = tt.load %tmp0_3 : tensor<512x!tt.ptr<bf16>> loc(#loc25)
    %tmp0_5 = arith.extf %tmp0_4 : tensor<512xbf16> to tensor<512xf32> loc(#loc26)
    %tmp1 = tt.splat %in_ptr1 : !tt.ptr<bf16> -> tensor<512x!tt.ptr<bf16>> loc(#loc27)
    %tmp1_6 = tt.addptr %tmp1, %xindex_2 : tensor<512x!tt.ptr<bf16>>, tensor<512xi32> loc(#loc27)
    %tmp1_7 = tt.load %tmp1_6 : tensor<512x!tt.ptr<bf16>> loc(#loc28)
    %tmp1_8 = arith.extf %tmp1_7 : tensor<512xbf16> to tensor<512xf32> loc(#loc29)
    %tmp2 = arith.addf %tmp0_5, %tmp1_8 : tensor<512xf32> loc(#loc30)
    %0 = tt.splat %out_ptr0 : !tt.ptr<bf16> -> tensor<512x!tt.ptr<bf16>> loc(#loc13)
    %1 = tt.addptr %0, %xindex_2 : tensor<512x!tt.ptr<bf16>>, tensor<512xi32> loc(#loc13)
    %2 = arith.truncf %tmp2 : tensor<512xf32> to tensor<512xbf16> loc(#loc14)
    tt.store %1, %2 : tensor<512x!tt.ptr<bf16>> loc(#loc14)
    tt.return loc(#loc15)
  } loc(#loc)
} loc(#loc)
#loc1 = loc(unknown)
#loc2 = loc("/iopsstor/scratch/cscs/course_00313/gipfelsturm/.inductor_cache/vx/cvxhj4c4fbnz3w4o72vwab45mdfl63w6swlsf5wqab2ky7lpqhud.py":20:28)
#loc3 = loc("/iopsstor/scratch/cscs/course_00313/gipfelsturm/.inductor_cache/vx/cvxhj4c4fbnz3w4o72vwab45mdfl63w6swlsf5wqab2ky7lpqhud.py":20:33)
#loc4 = loc("/iopsstor/scratch/cscs/course_00313/gipfelsturm/.inductor_cache/vx/cvxhj4c4fbnz3w4o72vwab45mdfl63w6swlsf5wqab2ky7lpqhud.py":21:36)
#loc5 = loc("/iopsstor/scratch/cscs/course_00313/gipfelsturm/.inductor_cache/vx/cvxhj4c4fbnz3w4o72vwab45mdfl63w6swlsf5wqab2ky7lpqhud.py":21:23)
#loc6 = loc("/iopsstor/scratch/cscs/course_00313/gipfelsturm/.inductor_cache/vx/cvxhj4c4fbnz3w4o72vwab45mdfl63w6swlsf5wqab2ky7lpqhud.py":24:30)
#loc7 = loc("/iopsstor/scratch/cscs/course_00313/gipfelsturm/.inductor_cache/vx/cvxhj4c4fbnz3w4o72vwab45mdfl63w6swlsf5wqab2ky7lpqhud.py":24:35)
#loc8 = loc("/iopsstor/scratch/cscs/course_00313/gipfelsturm/.inductor_cache/vx/cvxhj4c4fbnz3w4o72vwab45mdfl63w6swlsf5wqab2ky7lpqhud.py":24:44)
#loc9 = loc("/iopsstor/scratch/cscs/course_00313/gipfelsturm/.inductor_cache/vx/cvxhj4c4fbnz3w4o72vwab45mdfl63w6swlsf5wqab2ky7lpqhud.py":25:30)
#loc10 = loc("/iopsstor/scratch/cscs/course_00313/gipfelsturm/.inductor_cache/vx/cvxhj4c4fbnz3w4o72vwab45mdfl63w6swlsf5wqab2ky7lpqhud.py":25:35)
#loc11 = loc("/iopsstor/scratch/cscs/course_00313/gipfelsturm/.inductor_cache/vx/cvxhj4c4fbnz3w4o72vwab45mdfl63w6swlsf5wqab2ky7lpqhud.py":25:44)
#loc12 = loc("/iopsstor/scratch/cscs/course_00313/gipfelsturm/.inductor_cache/vx/cvxhj4c4fbnz3w4o72vwab45mdfl63w6swlsf5wqab2ky7lpqhud.py":26:18)
#loc13 = loc("/iopsstor/scratch/cscs/course_00313/gipfelsturm/.inductor_cache/vx/cvxhj4c4fbnz3w4o72vwab45mdfl63w6swlsf5wqab2ky7lpqhud.py":27:25)
#loc14 = loc("/iopsstor/scratch/cscs/course_00313/gipfelsturm/.inductor_cache/vx/cvxhj4c4fbnz3w4o72vwab45mdfl63w6swlsf5wqab2ky7lpqhud.py":27:36)
#loc15 = loc("/iopsstor/scratch/cscs/course_00313/gipfelsturm/.inductor_cache/vx/cvxhj4c4fbnz3w4o72vwab45mdfl63w6swlsf5wqab2ky7lpqhud.py":27:4)
#loc20 = loc("xoffset"(#loc2))
#loc21 = loc("xoffset"(#loc3))
#loc22 = loc("xindex"(#loc4))
#loc23 = loc("xindex"(#loc5))
#loc24 = loc("tmp0"(#loc6))
#loc25 = loc("tmp0"(#loc7))
#loc26 = loc("tmp0"(#loc8))
#loc27 = loc("tmp1"(#loc9))
#loc28 = loc("tmp1"(#loc10))
#loc29 = loc("tmp1"(#loc11))
#loc30 = loc("tmp2"(#loc12))
