#loc = loc("/iopsstor/scratch/cscs/course_00313/gipfelsturm/.inductor_cache/ks/cksp5hlx4d2ywgl3zkqfofbacrozyugkxy5vch4aniui2yubhfsi.py":18:0)
#loc29 = loc("in_ptr0"(#loc))
#loc30 = loc("in_ptr1"(#loc))
#loc31 = loc("in_ptr2"(#loc))
#loc32 = loc("out_ptr0"(#loc))
#loc33 = loc("xnumel"(#loc))
module {
  tt.func public @triton_poi_fused__to_copy_arange_index_index_put_rsub_sub_view_1(%in_ptr0: !tt.ptr<i64> {tt.divisibility = 16 : i32} loc("in_ptr0"(#loc)), %in_ptr1: !tt.ptr<f32> {tt.divisibility = 16 : i32} loc("in_ptr1"(#loc)), %in_ptr2: !tt.ptr<i1> {tt.divisibility = 16 : i32} loc("in_ptr2"(#loc)), %out_ptr0: !tt.ptr<f32> {tt.divisibility = 16 : i32} loc("out_ptr0"(#loc)), %xnumel: i64 {tt.divisibility = 16 : i32} loc("xnumel"(#loc))) attributes {noinline = false} {
    %cst = arith.constant dense<0> : tensor<256xi64> loc(#loc1)
    %tmp10 = arith.constant dense<1.000000e+00> : tensor<256xf32> loc(#loc34)
    %cst_0 = arith.constant dense<50304> : tensor<256xi64> loc(#loc1)
    %tmp7 = arith.constant dense<0> : tensor<256xi8> loc(#loc35)
    %xoffset = arith.constant 256 : i64 loc(#loc36)
    %xoffset_1 = tt.get_program_id x : i32 loc(#loc37)
    %xoffset_2 = arith.extsi %xoffset_1 : i32 to i64 loc(#loc38)
    %xoffset_3 = arith.muli %xoffset_2, %xoffset : i64 loc(#loc36)
    %xindex = tt.make_range {end = 256 : i32, start = 0 : i32} : tensor<256xi32> loc(#loc39)
    %xindex_4 = arith.extsi %xindex : tensor<256xi32> to tensor<256xi64> loc(#loc40)
    %xindex_5 = tt.splat %xoffset_3 : i64 -> tensor<256xi64> loc(#loc41)
    %xindex_6 = arith.addi %xindex_5, %xindex_4 : tensor<256xi64> loc(#loc41)
    %tmp0 = tt.splat %in_ptr0 : !tt.ptr<i64> -> tensor<256x!tt.ptr<i64>> loc(#loc42)
    %tmp0_7 = tt.addptr %tmp0, %xindex_6 : tensor<256x!tt.ptr<i64>>, tensor<256xi64> loc(#loc42)
    %tmp0_8 = tt.load %tmp0_7 : tensor<256x!tt.ptr<i64>> loc(#loc43)
    %tmp7_9 = tt.splat %in_ptr2 : !tt.ptr<i1> -> tensor<256x!tt.ptr<i1>> loc(#loc44)
    %tmp7_10 = tt.addptr %tmp7_9, %xindex_6 : tensor<256x!tt.ptr<i1>>, tensor<256xi64> loc(#loc44)
    %tmp7_11 = tt.bitcast %tmp7_10 : tensor<256x!tt.ptr<i1>> -> tensor<256x!tt.ptr<i8>> loc(#loc35)
    %tmp7_12 = tt.load %tmp7_11 : tensor<256x!tt.ptr<i8>> loc(#loc35)
    %tmp7_13 = arith.cmpi ne, %tmp7_12, %tmp7 : tensor<256xi8> loc(#loc35)
    %tmp2 = arith.addi %tmp0_8, %cst_0 : tensor<256xi64> loc(#loc45)
    %tmp3 = arith.cmpi slt, %tmp0_8, %cst : tensor<256xi64> loc(#loc46)
    %tmp4 = arith.select %tmp3, %tmp2, %tmp0_8 : tensor<256xi1>, tensor<256xi64> loc(#loc47)
    %0 = arith.cmpi sge, %tmp4, %cst : tensor<256xi64> loc(#loc16)
    %1 = arith.cmpi slt, %tmp4, %cst_0 : tensor<256xi64> loc(#loc17)
    %2 = arith.andi %0, %1 : tensor<256xi1> loc(#loc18)
    tt.assert %2, "index out of bounds: 0 <= tmp4 < 50304" : tensor<256xi1> loc(#loc19)
    %tmp6 = arith.muli %xindex_6, %cst_0 : tensor<256xi64> loc(#loc48)
    %tmp6_14 = arith.addi %tmp4, %tmp6 : tensor<256xi64> loc(#loc49)
    %tmp6_15 = tt.splat %in_ptr1 : !tt.ptr<f32> -> tensor<256x!tt.ptr<f32>> loc(#loc50)
    %tmp6_16 = tt.addptr %tmp6_15, %tmp6_14 : tensor<256x!tt.ptr<f32>>, tensor<256xi64> loc(#loc50)
    %tmp6_17 = tt.load %tmp6_16 evictionPolicy = evict_last : tensor<256x!tt.ptr<f32>> loc(#loc51)
    %tmp8 = arith.uitofp %tmp7_13 : tensor<256xi1> to tensor<256xf32> loc(#loc52)
    %tmp10_18 = arith.subf %tmp10, %tmp8 : tensor<256xf32> loc(#loc34)
    %tmp11 = arith.subf %tmp6_17, %tmp10_18 : tensor<256xf32> loc(#loc53)
    %3 = tt.splat %out_ptr0 : !tt.ptr<f32> -> tensor<256x!tt.ptr<f32>> loc(#loc26)
    %4 = tt.addptr %3, %tmp6_14 : tensor<256x!tt.ptr<f32>>, tensor<256xi64> loc(#loc26)
    tt.store %4, %tmp11 : tensor<256x!tt.ptr<f32>> loc(#loc27)
    tt.return loc(#loc28)
  } loc(#loc)
} loc(#loc)
#loc1 = loc(unknown)
#loc2 = loc("/iopsstor/scratch/cscs/course_00313/gipfelsturm/.inductor_cache/ks/cksp5hlx4d2ywgl3zkqfofbacrozyugkxy5vch4aniui2yubhfsi.py":34:19)
#loc3 = loc("/iopsstor/scratch/cscs/course_00313/gipfelsturm/.inductor_cache/ks/cksp5hlx4d2ywgl3zkqfofbacrozyugkxy5vch4aniui2yubhfsi.py":25:35)
#loc4 = loc("/iopsstor/scratch/cscs/course_00313/gipfelsturm/.inductor_cache/ks/cksp5hlx4d2ywgl3zkqfofbacrozyugkxy5vch4aniui2yubhfsi.py":20:46)
#loc5 = loc("/iopsstor/scratch/cscs/course_00313/gipfelsturm/.inductor_cache/ks/cksp5hlx4d2ywgl3zkqfofbacrozyugkxy5vch4aniui2yubhfsi.py":20:28)
#loc6 = loc("/iopsstor/scratch/cscs/course_00313/gipfelsturm/.inductor_cache/ks/cksp5hlx4d2ywgl3zkqfofbacrozyugkxy5vch4aniui2yubhfsi.py":20:34)
#loc7 = loc("/iopsstor/scratch/cscs/course_00313/gipfelsturm/.inductor_cache/ks/cksp5hlx4d2ywgl3zkqfofbacrozyugkxy5vch4aniui2yubhfsi.py":21:36)
#loc8 = loc("/iopsstor/scratch/cscs/course_00313/gipfelsturm/.inductor_cache/ks/cksp5hlx4d2ywgl3zkqfofbacrozyugkxy5vch4aniui2yubhfsi.py":21:50)
#loc9 = loc("/iopsstor/scratch/cscs/course_00313/gipfelsturm/.inductor_cache/ks/cksp5hlx4d2ywgl3zkqfofbacrozyugkxy5vch4aniui2yubhfsi.py":21:23)
#loc10 = loc("/iopsstor/scratch/cscs/course_00313/gipfelsturm/.inductor_cache/ks/cksp5hlx4d2ywgl3zkqfofbacrozyugkxy5vch4aniui2yubhfsi.py":24:30)
#loc11 = loc("/iopsstor/scratch/cscs/course_00313/gipfelsturm/.inductor_cache/ks/cksp5hlx4d2ywgl3zkqfofbacrozyugkxy5vch4aniui2yubhfsi.py":24:35)
#loc12 = loc("/iopsstor/scratch/cscs/course_00313/gipfelsturm/.inductor_cache/ks/cksp5hlx4d2ywgl3zkqfofbacrozyugkxy5vch4aniui2yubhfsi.py":25:30)
#loc13 = loc("/iopsstor/scratch/cscs/course_00313/gipfelsturm/.inductor_cache/ks/cksp5hlx4d2ywgl3zkqfofbacrozyugkxy5vch4aniui2yubhfsi.py":27:18)
#loc14 = loc("/iopsstor/scratch/cscs/course_00313/gipfelsturm/.inductor_cache/ks/cksp5hlx4d2ywgl3zkqfofbacrozyugkxy5vch4aniui2yubhfsi.py":28:18)
#loc15 = loc("/iopsstor/scratch/cscs/course_00313/gipfelsturm/.inductor_cache/ks/cksp5hlx4d2ywgl3zkqfofbacrozyugkxy5vch4aniui2yubhfsi.py":29:32)
#loc16 = loc("/iopsstor/scratch/cscs/course_00313/gipfelsturm/.inductor_cache/ks/cksp5hlx4d2ywgl3zkqfofbacrozyugkxy5vch4aniui2yubhfsi.py":30:27)
#loc17 = loc("/iopsstor/scratch/cscs/course_00313/gipfelsturm/.inductor_cache/ks/cksp5hlx4d2ywgl3zkqfofbacrozyugkxy5vch4aniui2yubhfsi.py":30:43)
#loc18 = loc("/iopsstor/scratch/cscs/course_00313/gipfelsturm/.inductor_cache/ks/cksp5hlx4d2ywgl3zkqfofbacrozyugkxy5vch4aniui2yubhfsi.py":30:36)
#loc19 = loc("/iopsstor/scratch/cscs/course_00313/gipfelsturm/.inductor_cache/ks/cksp5hlx4d2ywgl3zkqfofbacrozyugkxy5vch4aniui2yubhfsi.py":30:51)
#loc20 = loc("/iopsstor/scratch/cscs/course_00313/gipfelsturm/.inductor_cache/ks/cksp5hlx4d2ywgl3zkqfofbacrozyugkxy5vch4aniui2yubhfsi.py":31:43)
#loc21 = loc("/iopsstor/scratch/cscs/course_00313/gipfelsturm/.inductor_cache/ks/cksp5hlx4d2ywgl3zkqfofbacrozyugkxy5vch4aniui2yubhfsi.py":31:37)
#loc22 = loc("/iopsstor/scratch/cscs/course_00313/gipfelsturm/.inductor_cache/ks/cksp5hlx4d2ywgl3zkqfofbacrozyugkxy5vch4aniui2yubhfsi.py":31:30)
#loc23 = loc("/iopsstor/scratch/cscs/course_00313/gipfelsturm/.inductor_cache/ks/cksp5hlx4d2ywgl3zkqfofbacrozyugkxy5vch4aniui2yubhfsi.py":31:48)
#loc24 = loc("/iopsstor/scratch/cscs/course_00313/gipfelsturm/.inductor_cache/ks/cksp5hlx4d2ywgl3zkqfofbacrozyugkxy5vch4aniui2yubhfsi.py":32:19)
#loc25 = loc("/iopsstor/scratch/cscs/course_00313/gipfelsturm/.inductor_cache/ks/cksp5hlx4d2ywgl3zkqfofbacrozyugkxy5vch4aniui2yubhfsi.py":35:19)
#loc26 = loc("/iopsstor/scratch/cscs/course_00313/gipfelsturm/.inductor_cache/ks/cksp5hlx4d2ywgl3zkqfofbacrozyugkxy5vch4aniui2yubhfsi.py":36:25)
#loc27 = loc("/iopsstor/scratch/cscs/course_00313/gipfelsturm/.inductor_cache/ks/cksp5hlx4d2ywgl3zkqfofbacrozyugkxy5vch4aniui2yubhfsi.py":36:50)
#loc28 = loc("/iopsstor/scratch/cscs/course_00313/gipfelsturm/.inductor_cache/ks/cksp5hlx4d2ywgl3zkqfofbacrozyugkxy5vch4aniui2yubhfsi.py":36:4)
#loc34 = loc("tmp10"(#loc2))
#loc35 = loc("tmp7"(#loc3))
#loc36 = loc("xoffset"(#loc4))
#loc37 = loc("xoffset"(#loc5))
#loc38 = loc("xoffset"(#loc6))
#loc39 = loc("xindex"(#loc7))
#loc40 = loc("xindex"(#loc8))
#loc41 = loc("xindex"(#loc9))
#loc42 = loc("tmp0"(#loc10))
#loc43 = loc("tmp0"(#loc11))
#loc44 = loc("tmp7"(#loc12))
#loc45 = loc("tmp2"(#loc13))
#loc46 = loc("tmp3"(#loc14))
#loc47 = loc("tmp4"(#loc15))
#loc48 = loc("tmp6"(#loc20))
#loc49 = loc("tmp6"(#loc21))
#loc50 = loc("tmp6"(#loc22))
#loc51 = loc("tmp6"(#loc23))
#loc52 = loc("tmp8"(#loc24))
#loc53 = loc("tmp11"(#loc25))
