#loc = loc("/iopsstor/scratch/cscs/course_00313/gipfelsturm/.inductor_cache/vf/cvf3vsgfwaajjhjzlrjpb7bdjibfncemyzn4gsyvukfubqvtatmz.py":18:0)
#loc17 = loc("in_ptr0"(#loc))
#loc18 = loc("in_ptr1"(#loc))
#loc19 = loc("out_ptr1"(#loc))
#loc20 = loc("xnumel"(#loc))
module {
  tt.func public @triton_poi_fused_copy__div_split_unsqueeze_1(%in_ptr0: !tt.ptr<f32> {tt.divisibility = 16 : i32} loc("in_ptr0"(#loc)), %in_ptr1: !tt.ptr<f32> {tt.divisibility = 16 : i32} loc("in_ptr1"(#loc)), %out_ptr1: !tt.ptr<f32> {tt.divisibility = 16 : i32} loc("out_ptr1"(#loc)), %xnumel: i32 {tt.divisibility = 16 : i32} loc("xnumel"(#loc))) attributes {noinline = false} {
    %xnumel_0 = arith.constant 824180736 : i32 loc(#loc21)
    %xoffset = tt.get_program_id x : i32 loc(#loc22)
    %xoffset_1 = arith.constant 1024 : i32 loc(#loc23)
    %xoffset_2 = arith.constant 1024 : i32 loc(#loc23)
    %xoffset_3 = arith.muli %xoffset, %xoffset_2 : i32 loc(#loc23)
    %xindex = tt.make_range {end = 1024 : i32, start = 0 : i32} : tensor<1024xi32> loc(#loc24)
    %xindex_4 = tt.splat %xoffset_3 : i32 -> tensor<1024xi32> loc(#loc25)
    %xindex_5 = arith.addi %xindex_4, %xindex : tensor<1024xi32> loc(#loc25)
    %xmask = arith.constant true loc(#loc26)
    %xmask_6 = arith.constant dense<true> : tensor<1024xi1> loc(#loc26)
    %x1 = arith.constant 50304 : i32 loc(#loc27)
    %x1_7 = arith.constant 50304 : i32 loc(#loc27)
    %x1_8 = arith.constant dense<50304> : tensor<1024xi32> loc(#loc27)
    %x1_9 = arith.divsi %xindex_5, %x1_8 : tensor<1024xi32> loc(#loc27)
    %tmp0 = tt.splat %in_ptr0 : !tt.ptr<f32> -> tensor<1024x!tt.ptr<f32>> loc(#loc28)
    %tmp0_10 = tt.addptr %tmp0, %xindex_5 : tensor<1024x!tt.ptr<f32>>, tensor<1024xi32> loc(#loc28)
    %tmp0_11 = tt.load %tmp0_10 : tensor<1024x!tt.ptr<f32>> loc(#loc29)
    %tmp1 = arith.constant 16384 : i32 loc(#loc30)
    %tmp1_12 = arith.constant 16384 : i32 loc(#loc30)
    %tmp1_13 = arith.constant dense<16384> : tensor<1024xi32> loc(#loc30)
    %tmp1_14 = arith.addi %tmp1_13, %x1_9 : tensor<1024xi32> loc(#loc30)
    %tmp1_15 = tt.splat %in_ptr1 : !tt.ptr<f32> -> tensor<1024x!tt.ptr<f32>> loc(#loc31)
    %tmp1_16 = tt.addptr %tmp1_15, %tmp1_14 : tensor<1024x!tt.ptr<f32>>, tensor<1024xi32> loc(#loc31)
    %tmp1_17 = tt.load %tmp1_16 evictionPolicy = evict_last : tensor<1024x!tt.ptr<f32>> loc(#loc32)
    %tmp2 = arith.divf %tmp0_11, %tmp1_17 : tensor<1024xf32> loc(#loc33)
    %0 = tt.splat %out_ptr1 : !tt.ptr<f32> -> tensor<1024x!tt.ptr<f32>> loc(#loc14)
    %1 = tt.addptr %0, %xindex_5 : tensor<1024x!tt.ptr<f32>>, tensor<1024xi32> loc(#loc14)
    tt.store %1, %tmp2 : tensor<1024x!tt.ptr<f32>> loc(#loc15)
    tt.return loc(#loc16)
  } loc(#loc)
} loc(#loc)
#loc1 = loc("/iopsstor/scratch/cscs/course_00313/gipfelsturm/.inductor_cache/vf/cvf3vsgfwaajjhjzlrjpb7bdjibfncemyzn4gsyvukfubqvtatmz.py":19:13)
#loc2 = loc("/iopsstor/scratch/cscs/course_00313/gipfelsturm/.inductor_cache/vf/cvf3vsgfwaajjhjzlrjpb7bdjibfncemyzn4gsyvukfubqvtatmz.py":20:28)
#loc3 = loc("/iopsstor/scratch/cscs/course_00313/gipfelsturm/.inductor_cache/vf/cvf3vsgfwaajjhjzlrjpb7bdjibfncemyzn4gsyvukfubqvtatmz.py":20:33)
#loc4 = loc("/iopsstor/scratch/cscs/course_00313/gipfelsturm/.inductor_cache/vf/cvf3vsgfwaajjhjzlrjpb7bdjibfncemyzn4gsyvukfubqvtatmz.py":21:36)
#loc5 = loc("/iopsstor/scratch/cscs/course_00313/gipfelsturm/.inductor_cache/vf/cvf3vsgfwaajjhjzlrjpb7bdjibfncemyzn4gsyvukfubqvtatmz.py":21:23)
#loc6 = loc("/iopsstor/scratch/cscs/course_00313/gipfelsturm/.inductor_cache/vf/cvf3vsgfwaajjhjzlrjpb7bdjibfncemyzn4gsyvukfubqvtatmz.py":22:36)
#loc7 = loc("/iopsstor/scratch/cscs/course_00313/gipfelsturm/.inductor_cache/vf/cvf3vsgfwaajjhjzlrjpb7bdjibfncemyzn4gsyvukfubqvtatmz.py":24:19)
#loc8 = loc("/iopsstor/scratch/cscs/course_00313/gipfelsturm/.inductor_cache/vf/cvf3vsgfwaajjhjzlrjpb7bdjibfncemyzn4gsyvukfubqvtatmz.py":25:30)
#loc9 = loc("/iopsstor/scratch/cscs/course_00313/gipfelsturm/.inductor_cache/vf/cvf3vsgfwaajjhjzlrjpb7bdjibfncemyzn4gsyvukfubqvtatmz.py":25:35)
#loc10 = loc("/iopsstor/scratch/cscs/course_00313/gipfelsturm/.inductor_cache/vf/cvf3vsgfwaajjhjzlrjpb7bdjibfncemyzn4gsyvukfubqvtatmz.py":26:38)
#loc11 = loc("/iopsstor/scratch/cscs/course_00313/gipfelsturm/.inductor_cache/vf/cvf3vsgfwaajjhjzlrjpb7bdjibfncemyzn4gsyvukfubqvtatmz.py":26:30)
#loc12 = loc("/iopsstor/scratch/cscs/course_00313/gipfelsturm/.inductor_cache/vf/cvf3vsgfwaajjhjzlrjpb7bdjibfncemyzn4gsyvukfubqvtatmz.py":26:43)
#loc13 = loc("/iopsstor/scratch/cscs/course_00313/gipfelsturm/.inductor_cache/vf/cvf3vsgfwaajjhjzlrjpb7bdjibfncemyzn4gsyvukfubqvtatmz.py":27:19)
#loc14 = loc("/iopsstor/scratch/cscs/course_00313/gipfelsturm/.inductor_cache/vf/cvf3vsgfwaajjhjzlrjpb7bdjibfncemyzn4gsyvukfubqvtatmz.py":28:25)
#loc15 = loc("/iopsstor/scratch/cscs/course_00313/gipfelsturm/.inductor_cache/vf/cvf3vsgfwaajjhjzlrjpb7bdjibfncemyzn4gsyvukfubqvtatmz.py":28:36)
#loc16 = loc("/iopsstor/scratch/cscs/course_00313/gipfelsturm/.inductor_cache/vf/cvf3vsgfwaajjhjzlrjpb7bdjibfncemyzn4gsyvukfubqvtatmz.py":28:4)
#loc21 = loc("xnumel"(#loc1))
#loc22 = loc("xoffset"(#loc2))
#loc23 = loc("xoffset"(#loc3))
#loc24 = loc("xindex"(#loc4))
#loc25 = loc("xindex"(#loc5))
#loc26 = loc("xmask"(#loc6))
#loc27 = loc("x1"(#loc7))
#loc28 = loc("tmp0"(#loc8))
#loc29 = loc("tmp0"(#loc9))
#loc30 = loc("tmp1"(#loc10))
#loc31 = loc("tmp1"(#loc11))
#loc32 = loc("tmp1"(#loc12))
#loc33 = loc("tmp2"(#loc13))
